eegnet_model.pth (torch, 23188 bytes, 18 tensors)

block1.0.weight f4 [16, 1, 1, 32]
000000 7b 91 53 be 59 9a 51 bc d8 03 b2 3d d6 7a d5 3d
       -0.20660965 -0.012793147 0.086921394 0.1042382
000010 3f e1 e9 bb 80 39 1b be c0 05 e6 3d 07 10 90 3e
       -0.007137447 -0.15158653 0.112315655 0.28137228
000020 28 6a 30 3e 5c 8e c5 be 46 ad 9d be 19 d7 2a bd
       0.17227995 -0.38585174 -0.3079626 -0.04170904
000030 f6 01 5e 3e c6 c6 e9 3d 82 25 05 be c0 57 81 be
       0.21680436 0.11414866 -0.1300259 -0.2526226
000040 b9 9d 67 3e b7 73 44 3e c8 69 36 3e 77 4f c0 bd
       0.2261876 0.19184767 0.1781379 -0.09390157
000050 13 ab f0 be 63 46 ce bd 2b 12 3c 3e ae 3f 34 3e
       -0.4700552 -0.10072019 0.18366306 0.17602417
000060 b9 18 c0 bc 80 06 36 be d6 4a 06 bd 1c 88 81 3e
       -0.023449289 -0.17775917 -0.032786213 0.25299156
000070 90 c6 0a 3e 73 84 30 be 07 2c 42 be 19 94 1f 3d
       0.13552308 -0.17238025 -0.18962108 0.038959596
000080 66 d4 80 be ac 08 62 3d 91 2f 20 be e0 e2 22 3d
       -0.25162047 0.05518405 -0.15643145 0.039767146
000090 fa 35 8a be 0b b6 0f be 7f 75 5e 3c 49 15 ca bd
       -0.26994306 -0.14034288 0.013577818 -0.09867341
0000a0 6c 09 83 3e 63 ca 06 3e 44 c0 9f 3e dc 6d 9e bd
       0.25593126 0.13163142 0.31201375 -0.07735798
0000b0 f1 82 a7 3c eb 0f 61 be 84 be aa bc a5 8a 91 3e
       0.02044818 -0.21978728 -0.020842798 0.2842609
0000c0 8e 77 06 3e a8 7f b3 3d 74 1d 2b 3d d6 e2 19 be
       0.13131544 0.08764583 0.041776136 -0.15027937
0000d0 79 7c a5 be aa c5 7f bd 23 28 8f bd 6d 2c 60 3e
       -0.32321528 -0.062444367 -0.06990077 0.21891947
0000e0 19 1d bf bb bb d9 28 bd be bc 50 be 04 81 98 bd
       -0.005832326 -0.04122327 -0.203845 -0.07446483
0000f0 75 81 a2 3c 85 6b 1a be b3 8e 35 3d 44 17 3a 3f
       0.01983712 -0.15080078 0.04432554 0.7269175
000100 52 4e 89 3e da 52 46 3e 7c 4b b5 3c a2 60 05 3c
       0.26817566 0.19367543 0.02213072 0.008140715
000110 2f c2 20 be 45 45 94 3e f9 d9 ba 3e 16 7c 79 3e
       -0.15699075 0.28959098 0.36494425 0.24363741
000120 63 00 8f 3d 85 b1 c8 bd a8 2d 02 3e 16 57 2f 3e
       0.06982496 -0.09799484 0.12712729 0.17123064
000130 7a 3e 6f 3e b8 6c e5 3d 5e 0b bd 3e 1d 7b 83 3e
       0.23363677 0.11202377 0.36922735 0.25679865
000140 c0 2f 48 3e 79 99 33 bb d8 51 fe 3d 21 67 76 3e
       0.19549465 -0.002740471 0.12417954 0.24062778
000150 14 13 1b 3e f1 7b 28 3e 49 54 ba 3e 11 55 c2 3d
       0.15143996 0.1645353 0.3639243 0.094888814
000160 27 0a ab 3d 94 79 c1 bc f1 6f f3 3d 06 97 28 3e
       0.08351546 -0.023617543 0.118865855 0.16463861
000170 04 56 44 3d 3a 47 22 bd 6d 61 4c 3d 31 bf d9 3e
       0.047933593 -0.03961871 0.0498976 0.4252868
000180 26 30 23 bf f8 e9 06 3d c8 48 3e 3e a5 99 1f bd
       -0.63745344 0.032937974 0.18582451 -0.038964886
000190 79 f2 2d 3e 7d 77 35 3e bf 59 06 bc 25 b3 4f 3e
       0.16987027 0.17721362 -0.008200108 0.20283182
0001a0 3b 36 d6 3e 52 7b cb 3d 4d f2 46 3d 6f 1a 55 3e
       0.4183825 0.09935631 0.04857092 0.20810865
0001b0 8a a5 6e 3e a5 65 2b 3e 26 ad e9 3b ca aa f5 bb
       0.23305336 0.16737993 0.0071312366 -0.0074971663
0001c0 08 e0 9a bc fe c5 1d bd 41 10 c9 bc b7 56 27 bc
       -0.018905655 -0.0385189 -0.024543883 -0.0102135455
0001d0 1a d2 3f bd 1c 9e 09 bd 85 3a 22 3e df 5b 05 3e
       -0.046831228 -0.03359805 0.15842636 0.13023327
0001e0 15 40 0b 3e e8 6f 07 3e eb 93 c3 3e 85 f2 31 3e
       0.13598664 0.13226283 0.3819879 0.1737767
0001f0 56 d5 1d 3b 03 2e 96 3d f5 1c 48 3e 7a a3 4d 3e
       0.0024083457 0.07332995 0.19542296 0.20081893
000200 3f 04 50 be 58 46 62 bd a4 6f 68 3c b8 a3 46 3e
       -0.2031412 -0.055242866 0.014186773 0.19398391
000210 8c 6b 4a 3e c8 5a 1f 3e b4 4b 9f 3d 09 81 01 be
       0.19767588 0.15561974 0.07778111 -0.1264688
000220 01 94 55 be 76 87 3d be 66 5c aa be 00 1f 94 be
       -0.2085724 -0.18508705 -0.3327362 -0.289299
000230 88 b8 a8 be ff 82 c6 bd 24 d4 27 bd f2 d9 4f 3e
       -0.32953286 -0.09692954 -0.040973797 0.20297983
000240 97 56 e1 3e a9 4f 51 3e ed f8 7a 3e 24 78 0b bc
       0.44011375 0.20440544 0.2450902 -0.0085125305
000250 17 e8 29 bd 97 7c 55 be 27 cb 0a 3e 4e 01 69 bd
       -0.041481104 -0.20848309 0.13554059 -0.05688601
000260 51 06 ec bc 87 cf 00 be 1a cc d6 bd 9d a3 2d be
       -0.028811606 -0.12579165 -0.10488148 -0.16956945
000270 93 6b 8c be 6b d8 18 be 67 6d a6 3d 3c d1 03 3e
       -0.27425823 -0.14926307 0.081263356 0.12872785
000280 06 26 09 bf eb 39 0e be c2 15 36 3c b4 33 2f be
       -0.53573644 -0.13889281 0.011113586 -0.17109567
000290 f6 db 14 be 9c ef 8b be 95 7b 80 be 1b ae 11 be
       -0.14537033 -0.27331245 -0.25094286 -0.14226572
0002a0 b6 40 26 3c 72 32 c9 bd 61 38 11 be 6c 23 be bd
       0.010147264 -0.09824075 -0.14181663 -0.092841
0002b0 87 e0 22 bd 10 7b ee 3a 5d de 50 bd 01 f5 8b bd
       -0.039764907 0.0018194634 -0.050993312 -0.0683384
0002c0 c9 48 6f bd bd e1 16 bd 76 c8 6d be a9 0b 5c be
       -0.058419023 -0.036836375 -0.23221001 -0.21488823
0002d0 78 de dd bd 9b 91 c9 bd d8 d1 b2 be 6f 48 21 bd
       -0.10833448 -0.09842225 -0.34925723 -0.03937572
0002e0 5d fc 1d be b0 42 c4 bc 06 84 83 be 56 d9 86 be
       -0.154283 -0.02395758 -0.25686663 -0.2633769
0002f0 8f 9a 30 be 1d b0 1b be 0e 86 45 bd cc 9a 88 be
       -0.1724646 -0.152039 -0.048223548 -0.266806
000300 15 0b 5a be 07 2d a5 bd f0 5f 0c be 75 d8 3c 3e
       -0.2129329 -0.08065229 -0.13708472 0.18441947
000310 a2 ad 0a be 8c 9e cb bd aa b3 02 be f6 db 20 3e
       -0.13542798 -0.0994235 -0.12763849 0.15708908
000320 aa e0 a7 3e b6 ed 09 3e 93 73 0c be ad 15 76 3d
       0.32788593 0.13469586 -0.13715963 0.060079265
000330 e0 c8 f8 3d 56 a1 20 3e 6d cb 3d 3e 26 58 78 be
       0.12147689 0.15686545 0.18534632 -0.24252376
000340 4e 0c e4 be 0d 9e cb bd 53 10 4e 3d ba 83 da 3d
       -0.44540638 -0.09942255 0.050308537 0.10669656
000350 6c f4 79 be 29 d8 bc be 82 59 95 3d 12 c9 83 3e
       -0.24409646 -0.36883667 0.07292463 0.25739342
000360 af 69 10 3e f9 0b 17 3e ad 32 68 be 44 43 22 3e
       0.14102815 0.14750661 -0.22675581 0.15845972
000370 33 70 18 3e 27 98 33 3e 22 80 60 3d a2 0f a5 be
       0.1488655 0.1753851 0.054809697 -0.3223849
000380 ef 57 a0 be 03 fc 4b be 67 71 5d be 73 a7 d1 bd
       -0.31317088 -0.19920354 -0.21625291 -0.102370165
000390 a1 74 39 bd e9 f8 8d 3d e2 77 0e be b4 2a 39 be
       -0.04527724 0.069322415 -0.13912919 -0.18082696
0003a0 71 ca 69 be 75 5c cd bc 0d 10 cd be 32 33 c5 be
       -0.22831132 -0.025068501 -0.40051308 -0.3851562
0003b0 30 be 0a be 9c 4f 0c be 56 66 3b be 93 7a 89 be
       -0.13549113 -0.13702244 -0.18300757 -0.2685133
0003c0 bd 34 40 be cb bf f8 bd a3 bc f5 bd c0 17 45 be
       -0.18770118 -0.121459566 -0.1199887 -0.19247341
0003d0 91 c2 46 be 74 58 92 be 6f 9c f8 bd 35 1b 7e be
       -0.19410159 -0.2858311 -0.12139212 -0.24815066
0003e0 e0 a7 12 bd f2 b6 84 be bc aa ed bd d1 24 a3 bb
       -0.03580463 -0.25920826 -0.116048306 -0.004978754
0003f0 b2 f2 9c bd 8d 7b 9c 3d 6a 25 50 be 2a 7c 5e be
       -0.07663478 0.07640753 -0.20326772 -0.21727052

block1.1.weight f4 [16]
000000 74 8c fb 3f 2a 4f eb 3f 94 21 ea 3f 47 e6 19 40
       1.9652238 1.8383534 1.8291497 2.40468
000010 f7 f2 51 40 67 d9 e1 3f cb 87 7d 40 61 62 96 3f
       3.2804544 1.7644471 3.9614131 1.1748773
000020 8d 9f 50 40 42 18 49 40 fe 4a 27 40 c8 ab 1d 40
       3.2597382 3.1421056 2.6139522 2.4636097
000030 ee 25 08 40 ed 79 4f 40 7e 15 39 40 1b 87 10 40
       2.127315 3.2418168 2.8919368 2.2582462

block1.1.bias f4 [16]
000000 d3 53 85 3c 58 58 b6 3c ae c9 bb bd 5a 2a 0d 3e
       0.016275322 0.022258922 -0.09169327 0.13785687
000010 60 02 ba bd 35 00 e4 bc c7 6f 6c 3d 43 51 d9 bd
       -0.09082484 -0.02783213 0.057723787 -0.106112026
000020 5d b4 7d be 90 b8 f2 bd 76 26 49 bd 34 9f 12 bd
       -0.24775834 -0.11851609 -0.049108945 -0.03579636
000030 92 88 19 be 6a 5b 93 3e a7 37 4d 3e 80 1f fe 3d
       -0.14993504 0.2878068 0.20040761 0.12408352

block1.1.running_mean f4 [16]
000000 2a 1e f9 38 fb cd 87 b9 53 f0 92 ba 7c 5c 3b ba
       0.00011878864 -0.00025902674 -0.0011210538 -0.0007147265
000010 ec a0 60 39 90 3c 85 3a 31 76 98 38 bc 85 99 3a
       0.00021422253 0.0010165144 7.26994e-05 0.001171283
000020 ff d5 5e 38 8e c2 1f 39 ac 16 e5 b9 ba b9 1a b7
       5.3128224e-05 0.00015235899 -0.00043695176 -9.222358e-06
000030 9f 65 4c b6 12 16 f6 39 65 f5 12 38 b5 dc a7 b9
       -3.045752e-06 0.0004693722 3.5037654e-05 -0.00032017162

block1.1.running_var f4 [16]
000000 12 f5 5a 3e 39 30 c6 3f e9 45 6e 3f 90 95 0b 40
       0.2138255 1.5483466 0.93075424 2.1810036
000010 8d 3f 1b 40 22 7f df 3f 2c 62 6d 3f e0 c8 9d 3f
       2.4257538 1.7460673 0.92727923 1.2326927
000020 94 14 4f 40 77 a5 d7 3f f6 e8 19 40 46 92 87 3f
       3.235631 1.6847371 2.4048438 1.0591514
000030 e2 3f 6e 40 99 23 77 40 f2 d5 e8 3f f1 61 82 40
       3.722649 3.8615477 1.8190291 4.0744557

block2.0.weight f4 [32, 1, 22, 1]
000000 6d b1 17 3d 44 ad 90 be 4e 66 22 bc 33 db f3 bc
       0.03703444 -0.2825719 -0.009912087 -0.029767608
000010 65 3f 1a 3d a1 6c 56 be 2c 76 68 be 8b 22 b3 3e
       0.037658114 -0.20939876 -0.22701329 0.34987292
000020 8a 3f 0b 3f dd 78 48 bd 2d f8 14 3d 11 f8 0e 3e
       0.5439383 -0.04894339 0.03636949 0.13961817
000030 93 21 f5 3d 10 11 01 3e 02 c3 b6 bb 87 be d2 bd
       0.119692944 0.12604165 -0.005577446 -0.102902465
000040 5f 0a 56 be b5 dc 42 3c f9 42 87 be b3 4b 23 be
       -0.20902394 0.011893441 -0.26418284 -0.15946846
000050 cd 15 e9 3d aa 6e b8 3d cd 18 a0 bc ad 5f 1c be
       0.11381111 0.090054825 -0.019543076 -0.15270872
000060 2e 55 b0 3d 90 f7 2e 3e 29 e7 74 3b 14 96 73 3e
       0.08609997 0.17086625 0.0037369228 0.23787719
000070 ca 66 75 bd 33 54 15 3e a7 f1 1c bd 9c ce 12 3e
       -0.05991248 0.145829 -0.038316395 0.14336628
000080 48 87 cf be 09 16 40 bf 4a 4c 64 3e 46 a5 9a bd
       -0.405329 -0.7503362 0.22294727 -0.07551055
000090 86 ed eb 3c dd 68 79 bc 7c ce c5 3d 44 d7 02 3e
       0.028799783 -0.015222755 0.096585244 0.1277743
0000a0 dc b7 fa bc 01 eb ad 3c 4d ed b1 3e 22 1f de bd
       -0.03060525 0.021230223 0.3475136 -0.10845782
0000b0 5c 44 38 bd f5 19 89 bd 27 70 87 bd 4b 06 a4 3c
       -0.044987068 -0.06694404 -0.06613188 0.020022532
0000c0 68 69 db 3e 35 a4 bc 3d e3 35 4a be e7 a0 c8 3d
       0.42853856 0.092110075 -0.19747119 0.09796315
0000d0 81 c9 13 bd af a9 c8 bc 78 84 6f 3d 0b 0d 21 bc
       -0.03608084 -0.024494974 0.05847594 -0.00982977
0000e0 44 5c ed 3c 2c c9 2d 3d d4 d2 17 3e b9 af b1 3e
       0.02897466 0.04242818 0.14826518 0.34704378
0000f0 86 ca d3 be 6d 2b a5 be 11 48 b7 3d 99 c1 c8 be
       -0.4136545 -0.32259694 0.089492925 -0.39210203
000100 ad 62 3d bd 70 a7 3f 3e 8e 79 6f 3c 71 39 2d bd
       -0.046236683 0.18716216 0.014616383 -0.04229111
000110 e5 e4 ea 3c 30 21 b5 bd 9f 81 50 3d be e7 bb bd
       0.028673599 -0.08844221 0.050904866 -0.09175061
000120 74 b4 23 bd 16 5f db bd 51 73 c3 3e ad de 84 3e
       -0.039967015 -0.107114956 0.38173917 0.25951138
000130 41 3c 70 bc de 4b 80 3c 8a d7 52 3c 2a 54 65 3e
       -0.014662803 0.015661176 0.012868771 0.22395387
000140 41 45 fc be 2e a5 03 bf 0a 96 8f 3e dc 2e c8 bd
       -0.49271587 -0.5142392 0.28044158 -0.09774563
000150 86 94 40 3e 64 d3 a0 3d b8 d2 5f 3d c5 e5 99 bd
       0.18806657 0.078528196 0.054644316 -0.07514528
000160 8b 55 9a bd 85 0d 1c bd 9a d6 b5 3d cf cd 01 bd
       -0.07535847 -0.03809883 0.088788226 -0.031690415
000170 57 bd b3 bd 59 51 40 3d 83 30 75 3e 06 02 85 3d
       -0.08776348 0.04695258 0.23944287 0.064945266
000180 00 c6 c3 bc f1 30 27 3e 12 2b cd 3d 40 b1 40 3d
       -0.023898125 0.16327263 0.10017981 0.04704404
000190 00 13 71 bd c9 86 d9 bd dd fb 99 bd 18 77 96 bd
       -0.05885601 -0.10621411 -0.07518742 -0.07346934
0001a0 a7 23 12 be 82 0d d6 3b 1c f0 00 bf 2f f5 2a be
       -0.14271413 0.006532372 -0.5036638 -0.16695093
0001b0 97 9e eb 3d f2 07 38 3f 2f d9 4b bd 2c 38 9f bd
       0.11504858 0.71887124 -0.04976767 -0.07774386
0001c0 09 34 00 bd f2 b7 2c bd 44 e7 01 3e db d7 fd bc
       -0.031299625 -0.04216761 0.12685877 -0.030986717
0001d0 10 5a 2d bc df 38 12 be 74 6e 80 be 8b a8 30 3e
       -0.010580555 -0.14279507 -0.2508427 0.17251794
0001e0 80 1f dd 3e 6d c8 c2 3d 8e 7e 8f 3e a8 08 10 3e
       0.43188095 0.095108844 0.2802624 0.14065802
0001f0 77 d8 58 3d 34 9c f9 bd f7 a6 be be b1 91 c4 be
       0.052940812 -0.121879965 -0.3723676 -0.38392404
000200 33 1a 0c 3f cd 53 e8 3c e4 62 b1 be d6 17 dd bc
       0.54727477 0.028360272 -0.3464576 -0.026988905
000210 41 a3 a9 be 51 cf d8 bd ae 6a ab 3e 53 81 b1 bd
       -0.33132365 -0.105864175 0.33479828 -0.08667245
000220 8e cc 8c 3e 12 26 54 be e6 64 12 be fd b0 4e be
       0.27499813 -0.20717648 -0.14296302 -0.20184703
000230 de 03 4a 3e 28 64 c6 bc cb 9d 17 3e 8f 20 b7 be
       0.19728038 -0.02421768 0.14806287 -0.35767028
000240 b4 10 00 3e 5a 8c 4a 3e 56 41 ea bd e6 c6 0b bb
       0.12506372 0.19780102 -0.11438243 -0.002132827
000250 79 39 01 3d 7b 35 38 3e 66 a6 78 3e 77 08 f3 be
       0.03154895 0.17989151 0.24282226 -0.47467396
000260 79 94 8b bc 19 42 17 3e 46 54 07 be 41 90 ae 3e
       -0.01703857 0.14771308 -0.13215742 0.34094432
000270 a4 a9 65 3e b5 88 94 bd 22 c1 61 be ba f8 07 be
       0.22427994 -0.07252637 -0.2204633 -0.13278475
000280 f3 d6 ad bd ae 88 e7 3e e4 bc 26 3e 95 1e 3f 3d
       -0.08488264 0.45221466 0.16282994 0.046660025
000290 58 59 42 3c ae 6e 3d be 3e 8c 95 bd 01 3a 95 be
       0.0118621215 -0.18499252 -0.0730214 -0.29145816
0002a0 50 4c 9f be 07 69 3a be 81 b5 2f 3e f0 0a 0c 3e
       -0.3111291 -0.18204127 0.17159082 0.13676047
0002b0 bc 50 5b be b1 d1 9f 3d 15 10 97 3e 77 32 19 bd
       -0.21417516 0.07803667 0.29504457 -0.037401643
0002c0 8d ec 9b 3d 58 ae 10 be f2 d6 d8 bd ac 31 67 bd
       0.07613478 -0.14129007 -0.105878726 -0.056443855
0002d0 7f 9b 5d bc 7f 12 d8 3d 4c 78 01 be 23 db b3 3d
       -0.013525843 0.10550403 -0.12643546 0.087820314
0002e0 1b 44 03 be 44 fe 61 be 2b 77 0c 3d 4e c0 2f be
       -0.12818949 -0.22069651 0.034293335 -0.17163202
0002f0 17 2e 26 3c 68 89 27 3f 2e 33 8f 3e 73 f3 6b be
       0.010142825 0.6544404 0.27968735 -0.23042087
000300 fd ad 96 3e 72 5a bc bd 4a 79 0e be 16 ad 56 be
       0.29429618 -0.091969386 -0.13913456 -0.20964465
000310 e4 bb 88 3e 80 1f 0a be 1e 87 80 3d 71 2d a4 bd
       0.2670585 -0.13488579 0.062757716 -0.0801648
000320 c0 d1 c3 3b fb d8 56 3e a6 2a 1b bf 65 75 5f 3e
       0.005975932 0.20981209 -0.6061195 0.21822126
000330 a0 2e 95 3c 09 90 4c 3e 6b 90 40 be bd 21 cc 3d
       0.01821071 0.1997682 -0.18805091 0.099673726
000340 6e 2d bd 3e 83 b5 c3 bd 88 b9 9f bb 36 bf 92 be
       0.36948723 -0.09556105 -0.004874412 -0.28661507
000350 c6 fe 9c 3e 13 b5 bc be 7c fc 48 3d eb 52 93 bd
       0.30663127 -0.368569 0.049068913 -0.0719355
000360 c6 06 3c 3e 72 74 a3 3c a4 23 3b 3d 5d fd c5 bd
       0.18361959 0.019952986 0.045688286 -0.09667466
000370 24 b9 ac 3d e8 44 9c 3d 0e 75 62 3e 8d 5b 88 3e
       0.0843375 0.0763033 0.22114965 0.26632348
000380 84 8b d8 be 3d 7b 3b be 0f 12 ff ba ce a4 99 be
       -0.42293942 -0.1830873 -0.0019460338 -0.30008548
000390 97 f7 c3 bd df 0d 89 bd 76 3a 21 be 63 70 6d be
       -0.095687084 -0.06692099 -0.15744957 -0.23187403
0003a0 ac 00 e5 3e 1d 87 f3 3d c1 9a 8c 3e df 4e 14 3e
       0.44727075 0.11891005 0.27461818 0.14483212
0003b0 d9 37 0c 3e 57 29 91 3d 38 8e 5b be 24 01 47 bb
       0.13693179 0.07087963 -0.21440971 -0.003036567
0003c0 bb ac 6e be 08 24 12 3e 04 2f 0f 3e 75 c8 c4 bd
       -0.23308079 0.14271557 0.13982779 -0.09608547
0003d0 dc 71 74 3b 04 45 c3 be 1a 55 81 3a e0 21 e6 3e
       0.003729931 -0.38138592 0.0009867281 0.4494772
0003e0 99 3a ec bc 7a f9 88 be ec 63 11 be 33 25 31 be
       -0.028836535 -0.26752836 -0.14198273 -0.17299347
0003f0 74 db 6b 3d 5f 01 1e 3d 31 56 d2 be 90 92 a0 3e
       0.057582334 0.038575526 -0.41081384 0.31361818

block2.1.weight f4 [32]
000000 2a 15 f9 3f b0 7f 2b 40 dd 89 1b 40 8c 36 f5 3f
       1.9459584 2.6796684 2.4302895 1.9157271
000010 4f 81 91 3f 1f e8 15 40 59 87 2e 40 06 e6 f3 3f
       1.1367587 2.3422925 2.727011 1.9054573
000020 e1 c9 3f 40 4c 56 32 40 3b cc 01 40 14 3d b8 3f
       2.9966967 2.7865171 2.0280902 1.439364
000030 4c 81 52 40 0b 06 59 40 36 9d 93 3f 65 53 94 3f
       3.2891417 3.3909938 1.1532352 1.158795
000040 27 a5 49 40 80 c1 28 40 fb d1 48 40 41 57 29 40
       3.150705 2.6368103 3.1378162 2.6459506
000050 13 c0 be 3f 7c 36 43 40 cd 0c dd 3f 03 8c eb 3f
       1.4902366 3.0502005 1.7269531 1.8402103
000060 4d 48 d2 3f 98 c5 10 40 c8 dd 02 40 59 cd 41 40
       1.6428314 2.2620602 2.0447865 3.0281584
000070 6c 0a 24 40 d5 6c 3e 40 42 9f 21 40 ae 7e e6 3f
       2.563136 2.9753926 2.5253453 1.800741

block2.1.bias f4 [32]
000000 49 9f 2a bf 75 8f 4c bf 85 7e 49 bf 2d b0 52 bf
       -0.666493 -0.799064 -0.7870868 -0.8230007
000010 10 e8 cb be d4 42 05 bf 3a 46 92 bf 7b a6 1b bf
       -0.39825487 -0.52055097 -1.1427681 -0.60800904
000020 65 8f 8b bf e2 fc af bf 4b fb 5f bf 5c 95 ff be
       -1.0903136 -1.3749049 -0.8749282 -0.4991864
000030 37 60 d7 bf 21 1f a2 bf e4 8d 9f be c9 16 42 be
       -1.6826237 -1.266575 -0.3116294 -0.18954004
000040 68 fa 5b bf 5d 42 b7 bf 50 db 93 bf 03 c1 6f bf
       -0.85928965 -1.4317127 -1.1551304 -0.9365389
000050 da 8b 14 bf 0b 76 90 bf 11 da f6 be 3f 40 1b bf
       -0.58025897 -1.1286024 -0.48213246 -0.60644907
000060 be 02 17 bf 1e cc 8c bf 5e 7e 6b bf 46 03 80 bf
       -0.5898856 -1.0999792 -0.91989696 -1.0000999
000070 47 7e 61 bf 5c 68 52 bf cf 96 5a bf e9 a7 34 bf
       -0.8808331 -0.8219049 -0.85386366 -0.7056871

block2.1.running_mean f4 [32]
000000 9f de 0e 3a 49 f9 43 b9 e3 d5 da ba a0 bf 91 39
       0.0005450043 -0.00018689515 -0.0016695823 0.00027799327
000010 61 24 8c bc d9 23 83 3b 80 fb f4 bc ff ce 55 bc
       -0.01710719 0.004002076 -0.02990508 -0.01304984
000020 02 e3 e3 bb 39 77 f5 3a 7a b2 d6 ba ba fe 11 3c
       -0.0069545517 0.0018727548 -0.0016380094 0.008910829
000030 f7 b1 43 39 cb f6 26 bb 48 1c 9e 3c d6 24 5d bc
       0.00018662946 -0.002547669 0.019300595 -0.013497552
000040 4e ef 50 bc b4 d2 af bb 85 7b af 3a 43 d8 04 3b
       -0.012752367 -0.005365694 0.0013388252 0.0020270504
000050 94 7d 4c 3c 69 f0 85 3b c4 f5 8d 3a d5 83 cd b9
       0.012481112 0.004087497 0.001083069 -0.0003919887
000060 55 0b b8 bc 8a 48 27 bb aa 48 03 bc ee 6e 20 b9
       -0.022466341 -0.0025525414 -0.00801293 -0.00015300114
000070 21 e5 39 3b 09 61 9e 3a 37 49 1c 3c af b2 9c 3a
       0.0028365331 0.0012083362 0.00953894 0.0011955107

block2.1.running_var f4 [32]
000000 83 ae 51 3e 1d 48 67 3e 6f 89 de 3e ee 7f 06 3d
       0.20476727 0.22586103 0.4346423 0.032836847
000010 fa 53 32 3e 3e 8f 16 3e 44 49 b9 3e 5a c3 29 3f
       0.17414847 0.1470308 0.3618871 0.6631371
000020 83 0d 92 3f cd c3 6b 3d d9 57 ae 3d 3c 40 8d 3e
       1.1410373 0.057559777 0.08512849 0.2758807
000030 00 40 94 3e dd f4 a7 3f 53 e7 45 3e 09 74 1f 3d
       0.28955078 1.3121601 0.19326524 0.03892902
000040 16 2b 37 3f 1a f2 b3 3e da 0e 94 3f 99 d3 77 3f
       0.7155012 0.35145646 1.1567032 0.9680725
000050 2e 8d d6 3e 47 5b 52 3f 19 11 88 3e bb ae a8 3e
       0.41904587 0.8217053 0.26575544 0.3294581
000060 d6 ac 92 3e a6 7b b8 3d 15 07 ae 3e 8f d1 04 3f
       0.28647488 0.09007959 0.33989778 0.5188226
000070 7e 4b df 3e 83 fe a1 3e 19 27 53 3e be 13 2d 3e
       0.43612283 0.3163949 0.20620383 0.16902062

block3.0.weight f4 [32, 1, 1, 16]
000000 94 b0 4b bc 2e d5 83 be 0f c4 3f be cb a3 53 3d
       -0.012432236 -0.2574858 -0.18727134 0.051669877
000010 19 5e 0c be 65 e5 5b be a0 a8 18 be 0b 64 20 be
       -0.1370777 -0.21474226 -0.14908075 -0.15663163
000020 a4 98 f1 bc b0 56 8a bd eb 3f 87 3e c9 db d3 bc
       -0.02949173 -0.067548156 0.26415953 -0.025861638
000030 7e 30 9c 3d 22 c4 05 be 80 c7 6e be 15 d3 49 3d
       0.07626437 -0.130631 -0.2331829 0.04927357
000040 c4 c5 a7 3e 17 3e 03 bc 36 af 05 be ae 76 91 3e
       0.3276807 -0.008010409 -0.13055119 0.28410858
000050 28 4d 2d be 50 5a d8 3e a6 0b b0 3e 3d 79 b3 3c
       -0.16923964 0.42256403 0.34383887 0.021908397
000060 8c ca af 3e 7a 9f 3c 3d a2 4d 5d bc b8 11 c4 3d
       0.34334219 0.046050526 -0.013507279 0.09573692
000070 0a 6d 5d be f3 54 16 be 5c 03 9d bd 8f 19 ce be
       -0.21623626 -0.14680843 -0.076666564 -0.40253875
000080 d2 10 a0 3e 4d 7b 94 bd 6e f1 17 be ec bc 12 3e
       0.31262833 -0.0725008 -0.14838192 0.1432988
000090 ae a5 c6 bd 47 b6 12 be c5 26 75 3e f1 e5 1a be
       -0.0969957 -0.14327346 0.2394057 -0.15126778
0000a0 58 d4 4d 3d 1a f4 4f 3e b5 c6 6c be 4a 72 0d 3e
       0.050251335 0.20307961 -0.23122676 0.13813129
0000b0 41 71 ab 3e 9b 71 8c be 69 12 1d 3e f2 37 00 3f
       0.33484843 -0.27430424 0.15339054 0.50085366
0000c0 12 0c 9b be 7b 83 a7 3e 3c d1 67 be 09 53 e2 be
       -0.30282646 0.327175 -0.2263841 -0.44203976
0000d0 16 cb f3 3e 56 21 8c be 5b 87 9b 3d 18 3d 41 bd
       0.4761588 -0.27369183 0.075941764 -0.047177404
0000e0 fd 0f 5a 3e 4e a3 a5 3d 0f c9 9d be 3b 94 1e 3e
       0.21295162 0.080877885 -0.30817458 0.15486233
0000f0 66 cf f4 be 82 b7 9d 3e d7 6d a1 3d 41 01 e0 be
       -0.47814482 0.30804068 0.078822784 -0.43750957
000100 5a 3f 64 3f cc a2 31 3e 0e 61 99 be 04 54 f9 bd
       0.89159167 0.17347258 -0.2995686 -0.12174228
000110 a4 68 f1 3e 4a c6 bf 3e c5 46 c9 bd ad 29 ba be
       0.47150147 0.3745597 -0.09827951 -0.3635992
000120 44 c3 fe bd 81 0d 91 be fa f6 a3 be b5 43 6b be
       -0.12439588 -0.28330615 -0.32024366 -0.22975047
000130 c6 11 5c bc 19 db a6 3e 44 67 a9 3e 89 5b 03 bd
       -0.013431972 0.32589033 0.33086598 -0.032069717
000140 f8 92 05 bf 24 0e 0d bf fd fc 85 3b 66 c6 10 3e
       -0.5217738 -0.550997 0.0040889964 0.14138183
000150 49 ef 75 bc 68 2e 97 bb 62 d1 b4 3d 0b 96 6f 3e
       -0.015010663 -0.0046136864 0.08828999 0.2339708
000160 50 28 00 bd 86 94 9b 3c 75 44 33 3d 1c cc 6b 3e
       -0.031288445 0.01899172 0.043766458 0.2302708
000170 32 d0 20 3e 40 7f 63 be bc 69 12 be 60 09 92 be
       0.1570442 -0.22216511 -0.14298147 -0.28522778
000180 e4 e2 38 3e bf a1 c8 bd 9f 3e a0 3d 71 f2 1b be
       0.18055302 -0.097964756 0.07824444 -0.15229203
000190 b4 c8 1c bf e1 53 58 bd fa ba 8d 3e 57 38 37 be
       -0.6124375 -0.05281437 0.27681714 -0.17892586
0001a0 9f 44 81 bb 50 6d ad bb 3c 81 4e be 15 98 e3 3d
       -0.003944948 -0.005292572 -0.20166487 0.11112992
0001b0 f6 28 5c 3e 97 fe 66 be a6 47 e7 bc 10 67 6b 3d
       0.215 -0.22558056 -0.028232407 0.057471335
0001c0 eb b2 9c be 26 49 36 be 45 ab 2e bd 94 60 3c 3b
       -0.30605254 -0.17801341 -0.042643804 0.0028744088
0001d0 81 9c c1 3e 25 b7 1b 3e 48 bd 28 3d b6 fb 68 3e
       0.37814716 0.15206583 0.041196138 0.2275227
0001e0 18 91 42 be 0b b0 3b bd d4 c2 ca 3e bd fa 1b bd
       -0.19000661 -0.045822185 0.39601767 -0.03808092
0001f0 89 e0 43 bd a0 9e c1 3e 12 54 0a bf 3c ed ce 3d
       -0.047821555 0.37816334 -0.5403453 0.101038426
000200 d8 f0 a2 bc e2 8f a4 3e d2 a8 96 bd f3 87 f6 3d
       -0.019890234 0.32141024 -0.07356419 0.12037649
000210 c7 6c fe 3d f2 74 db bd cb 74 53 3e e3 b4 53 be
       0.124230914 -0.10715665 0.20650022 -0.20674472
000220 25 b2 10 3e bf 5f 23 3c 7b c9 3d be a8 65 bc 3e
       0.14130457 0.009971558 -0.1853389 0.36796308
000230 c7 c1 1c bd 6a bb 05 bd 2e 53 c6 3e 47 20 47 3d
       -0.038270738 -0.032649435 0.38735336 0.048614766
000240 e5 b7 7c be b1 56 ae 3c e2 69 8b be ed 12 44 be
       -0.24679525 0.021281572 -0.2722922 -0.19147845
000250 d5 67 49 3d be 38 ee bd fc 94 32 3e f7 07 9f be
       0.049171288 -0.116319165 0.17439646 -0.31060764
000260 8d 7d b5 3c 57 30 17 3e b2 c5 79 bd a1 64 f5 bd
       0.022154594 0.14764534 -0.060979553 -0.11982084
000270 e1 79 50 3e 8b 6f 8f be 5a 30 fd bd fb 87 a0 be
       0.20358993 -0.28014788 -0.12362738 -0.31353745
000280 82 91 03 3e a3 0e b8 3e af 53 91 3e 85 07 9f be
       0.12848476 0.35948667 0.28384158 -0.31060424
000290 e8 bb d1 be 55 9f ed 3e 89 88 ab 3d 06 c9 18 bc
       -0.40963674 0.46410623 0.083756514 -0.0093252715
0002a0 02 e0 32 3e e2 cb cb be 3a 1b 12 be d7 d4 bc 3c
       0.17468265 -0.39803988 -0.14268199 0.023050709
0002b0 48 a7 96 bd 88 01 81 3e 42 a5 5a be 05 a6 ba 3e
       -0.07356125 0.2519648 -0.21352103 0.36454788
0002c0 f3 67 47 3e 12 e4 a1 be b3 95 ca 3e f0 2a f0 3d
       0.19473247 -0.31619316 0.39567336 0.1172694
0002d0 af e7 da be 1f 3a 85 3e a0 0d 83 3e c9 ba be be
       -0.42754886 0.26020905 0.25596333 -0.3725188
0002e0 d9 f0 36 3e c3 07 48 3e be 50 28 be 33 b5 7f bc
       0.17865314 0.19534211 -0.1643705 -0.015607166
0002f0 44 c6 8f 3e dc 76 ae be 97 21 00 be f2 38 79 3e
       0.28080952 -0.34075058 -0.12512814 0.24338129
000300 b6 35 d5 bd 18 52 00 be 0a d1 3a 3e 0c 5f 24 be
       -0.10410635 -0.12531316 0.18243805 -0.16051883
000310 ee 9c 8a bd 74 da 55 3d e3 3b 82 be 8b 33 9b bd
       -0.06768213 0.052210286 -0.25436315 -0.075781904
000320 2c 52 c3 3d 4e 8c 5f be fe 31 11 3d e7 74 12 3d
       0.095371574 -0.21830866 0.035448067 0.035756018
000330 a6 80 5a be be 56 b5 bb 7a 9d 34 be cd 95 aa be
       -0.21338138 -0.005534022 -0.17638198 -0.33317414
000340 b7 83 7e be a6 e5 48 3e fa cd 74 be 9f cb 01 be
       -0.24854933 0.19618854 -0.23906699 -0.12675332
000350 e5 95 b2 3d f3 6b 85 be 06 68 d1 3d e0 2c d9 3b
       0.08719996 -0.2605892 0.10224919 0.006627664
000360 35 9c e2 bd 4c b4 ea bd a2 dd 6f 3d 9e 79 c3 bd
       -0.110649504 -0.1146017 0.058560975 -0.09544681
000370 88 0b 5a be 98 68 ba 3d 7a a3 81 3d 11 6f a8 be
       -0.21293461 0.09101981 0.06330009 -0.32897237
000380 7a 13 a1 3d 8c 13 32 3f 4e 43 25 3f 17 46 c3 3c
       0.07865043 0.69561076 0.64555824 0.023837132
000390 5a 71 13 bf 82 f7 b2 be 37 ea 09 be 60 b5 81 bd
       -0.57594836 -0.34954458 -0.13468252 -0.06333423
0003a0 6f 84 42 3d ad 19 67 3d 0a a4 3c 3e 43 b5 33 be
       0.04748958 0.05642097 0.18421951 -0.17549615
0003b0 48 79 1b be d8 d0 54 bd 53 d4 a2 3d 7b 04 9e 3e
       -0.15182984 -0.05195698 0.07950654 0.30862793
0003c0 f4 47 2b bf bc 40 a1 be 05 04 93 3e 96 b6 12 3f
       -0.66906667 -0.314947 0.28714004 0.57309854
0003d0 08 32 87 3e 8b 76 e6 bd 66 0c d6 bd 24 af 58 3d
       0.26405358 -0.11253079 -0.104515836 0.052901402
0003e0 6b fb 97 be 6a f6 84 bd 44 f0 54 3e d6 de 64 3e
       -0.29684004 -0.06492312 0.20794779 0.2235063
0003f0 73 58 17 bd 0a d1 53 be e1 f7 82 be 02 9f 31 3e
       -0.036949586 -0.20685211 -0.25579742 0.17345813

block3.1.weight f4 [32, 32, 1, 1]
000000 bc d3 9b 3c d5 29 3c bf d5 a0 4e be 52 21 ba be
       0.019021861 -0.7350133 -0.2017854 -0.36353546
000010 40 bd 4f bd 3f 92 84 3d d8 fc 69 be 31 cc fb 3d
       -0.050717592 0.06473207 -0.22850358 0.12294806
000020 74 e6 32 be 01 c6 e6 bd f7 42 84 bd f6 b8 b7 be
       -0.17470723 -0.11268235 -0.06458085 -0.35883301
000030 b5 c0 7b 3e 10 96 b7 bd 44 ee 03 bd 4c 4c 93 bd
       0.2458523 -0.08964169 -0.03220965 -0.07192287
000040 bb 08 97 3e 91 d9 ca 3a 62 d0 b7 3d b5 dd a5 3d
       0.29498848 0.0015476217 0.08975293 0.08098928
000050 a8 06 30 be 7e fd 45 be bf 01 97 be b0 8f 3e be
       -0.17190039 -0.19334981 -0.2949352 -0.186095
000060 47 2b 81 be 10 33 22 3e d8 3d 09 bd 01 c0 9e be
       -0.2522833 0.15839791 -0.033506244 -0.31005862
000070 29 fe ad bd 5a 3a 9c 3c 3b 34 ec bd 8f c1 1e be
       -0.08495743 0.019070793 -0.115334 -0.15503524
000080 c3 f3 0c bd 45 4e 86 bd f7 2d cf 3c 18 9b 25 bf
       -0.034412157 -0.065578975 0.025290472 -0.6468978
000090 b7 84 81 3d 21 e8 cd bc 69 41 de bd fc b2 6e 3c
       0.063241415 -0.025135102 -0.1085232 0.01456904
0000a0 e8 20 15 be 1b 82 c2 bd c1 8b 9d be 80 f4 61 bc
       -0.14563334 -0.09497472 -0.30770686 -0.0137912035
0000b0 cf c5 13 3d b2 1a af bd e7 52 d9 bd 3c 8a 4d bd
       0.036077317 -0.085500136 -0.106115155 -0.05018066
0000c0 85 12 d5 3c bb 6d 4e be da e9 d9 3d 2a 65 69 3e
       0.026009807 -0.20159046 0.10640307 0.22792497
0000d0 1b 86 49 bd 30 ba fd 3d af 41 da 3d 8d 97 0f bc
       -0.04920016 0.12389028 0.106570594 -0.00876416
0000e0 e0 a1 b8 3c f5 9b 36 be 97 29 01 3f e3 b9 0b be
       0.022538126 -0.1783293 0.50454086 -0.13645129
0000f0 f2 7a 81 bd f9 f5 5b bd ed cd 05 3e 39 7b 29 3f
       -0.06322278 -0.053701375 0.13066836 0.6620365
000100 b1 ee 94 3d 1f e1 ad 3e e2 1e 2e bd b0 75 54 3e
       0.07272089 0.33960816 -0.04250992 0.20748019
000110 72 3f 91 3e c0 f8 6d 3e fc d3 45 3e 9f 8a e5 3d
       0.28368717 0.23239422 0.19319147 0.112080805
000120 dd 33 fe bd 08 2b a4 3d 3e 60 87 be 1d 43 27 be
       -0.12412236 0.0801602 -0.26440614 -0.16334195
000130 02 54 d8 bc 4e a2 1e 3c 9a 92 2c 3e 82 33 7a be
       -0.026407246 0.009682251 0.16852799 -0.24433711
000140 39 8f fa be 56 59 cf bd 89 64 8c be 60 01 a1 be
       -0.48937395 -0.10124461 -0.27420452 -0.31446362
000150 b6 db 01 3e fb b8 d9 3d 72 84 d0 bd 03 e4 e1 bd
       0.1268147 0.10630985 -0.10181512 -0.11029818
000160 77 b7 17 3e ad 7b ea 3d 58 29 71 be 71 39 92 3d
       0.1481608 0.114493705 -0.23550928 0.07139862
000170 7b 29 ae 3d ae 57 59 be 25 e8 7f be ab b4 86 3e
       0.085040055 -0.21224853 -0.249909 0.26309714
000180 ab 33 55 3e 98 58 1f bd 42 64 17 bd 39 cb a1 bc
       0.20820491 -0.03890285 -0.036960848 -0.019750224
000190 e0 f5 0d be 43 e8 e9 bd d5 1b 6a 3d c5 65 9b be
       -0.13863325 -0.114212535 0.05715545 -0.30351081
0001a0 3b 7a 85 bd 90 02 ce be 2c a7 92 3e 51 0a b3 bd
       -0.06517454 -0.4023633 0.28643167 -0.08742202
0001b0 28 a5 83 3e 27 2e 3d 3e c8 52 9e 3e ee e2 95 3e
       0.25711942 0.18474637 0.30922532 0.29274696
0001c0 95 31 01 3e d6 c3 d8 bd 7d f9 fe bd e8 b4 91 3d
       0.1261657 -0.10584228 -0.1244993 0.07114583
0001d0 13 ee c0 3e 39 89 47 3e ee 34 9a 3d 6e 60 99 bd
       0.37681636 0.1948594 0.07529627 -0.07489096
0001e0 54 79 f8 be 3a 3a 8b 3e bb 2a 9b bc c1 e0 82 bc
       -0.48530066 0.2719286 -0.018941274 -0.015976312
0001f0 f2 be 87 be 84 c9 27 be 35 a3 75 3d 80 cb 23 be
       -0.26512867 -0.16385466 0.0599701 -0.15995598
000200 d4 3f a7 bd 94 87 a1 be 2e 8d 82 be ea 43 64 3d
       -0.08166471 -0.3154875 -0.25498337 0.05572883
000210 79 3a 73 be f6 46 8c bd 54 c7 9f be 36 57 b2 3e
       -0.23752774 -0.06849472 -0.31206763 0.34832162
000220 f0 d6 72 3d 04 bc a9 3c ed de df be 49 6f 00 3e
       0.05928701 0.020719536 -0.43724766 0.12542452
000230 f9 c9 2b 3e c3 18 92 bd c9 aa f9 bd 73 3b ad 3e
       0.16776265 -0.07133629 -0.12190778 0.3383442
000240 01 55 98 3e 3d 50 1f bd ac 2e 22 3e 78 8c 21 3e
       0.29752353 -0.03889488 0.15838116 0.15776241
000250 58 2f 9a 3e 79 3c 73 bc 3c c6 aa 3c 72 c9 c3 bd
       0.30114245 -0.014845961 0.020846479 -0.09559907
000260 78 66 06 bf 42 ef ab bd 24 8e f1 3d af 9a 50 be
       -0.52500105 -0.08395244 0.11794689 -0.20371507
000270 64 08 a9 bd 0c 97 d1 3d b9 34 bc 3e d7 37 14 3e
       -0.082535535 0.10233888 0.36758974 0.14474426
000280 96 ff e8 bd ef f5 87 3c 04 0d 9f bd 27 a9 5c 3e
       -0.11376874 0.016596762 -0.077661544 0.21548901
000290 31 e2 70 3e e8 6f 0a 3f 69 c4 d1 3e a3 6f d4 be
       0.23523785 0.54077005 0.40970162 -0.41491422
0002a0 2d a9 ea 3d cc 26 e8 bc 98 9e 88 bc 0c de 81 be
       0.11458049 -0.028338812 -0.016677186 -0.2536472
0002b0 e3 2a 41 bd 99 f9 5c bc b9 1a ab be 4b 5c d5 be
       -0.04716004 -0.013487243 -0.33418825 -0.41671976
0002c0 c5 a9 c1 3d b4 00 6f 3e ee ad 9c bd b4 d7 e1 bc
       0.09456209 0.23340112 -0.07650362 -0.027568676
0002d0 bf c6 b0 be ff fa 96 bc 7e aa aa 3e b5 46 e2 bc
       -0.3452663 -0.018430231 0.333332 -0.027621606
0002e0 5f db 39 3e 8d 61 35 be 0c ba 68 3e 95 77 38 3b
       0.1815009 -0.17712994 0.22727221 0.0028147448
0002f0 15 09 e3 3c 1f c4 a3 bd db a2 15 be c6 67 9f be
       0.027714292 -0.079963915 -0.14612906 -0.3113386
000300 6a 10 ab 3d 22 7f 5a 3e 08 d8 87 be a8 25 6a 3e
       0.0835274 0.2133756 -0.26532006 0.22865927
000310 86 3c 3b 3d 76 a3 0b bd 6c af 33 3e 74 a5 3e bd
       0.045712017 -0.034091435 0.17547387 -0.046544507
000320 3b 7d d3 3b 6d e7 84 be 1c 89 10 39 2b 3b 2c 3c
       0.0064541376 -0.25957814 0.00013783987 0.010512154
000330 df 08 03 bc dd 69 bd 3d 68 9b c2 be 17 15 41 bf
       -0.0079977205 0.092487074 -0.3800919 -0.75422806
000340 a2 9d c2 bb 52 54 8c be fe 9d b4 3d f3 8a 13 be
       -0.0059392015 -0.2740808 0.08819197 -0.14408474
000350 5a c9 c0 3e c4 5b b0 3d e3 51 0c be 4a ed 13 bf
       0.3765362 0.08611253 -0.13703112 -0.5778395
000360 a5 9f 4f 3d 9a 3c 8c 3e 5f ff 30 be 0d e4 6c bd
       0.05068936 0.27389985 -0.17284916 -0.057834674
000370 3d 42 07 3d c6 72 a6 3a 3a 48 07 be 86 c1 27 3e
       0.033022154 0.0012699 -0.13211146 0.16382417
000380 99 f1 d2 3e 47 55 0a bd 7b de 56 3d 5c c8 12 be
       0.4119995 -0.033772733 0.052458268 -0.14334244
000390 fc 16 f8 bd 15 1e 49 3d 9e 34 4e bd 54 e0 1f be
       -0.12113759 0.049100954 -0.05034315 -0.15612918
0003a0 12 3c a4 be 9a c9 dd bd 31 cb 89 3e 27 be ae 3c
       -0.3207708 -0.10829468 0.26912835 0.021330906
0003b0 e1 c9 86 bd 21 24 a5 3e 0c 66 df 3d d6 5f 26 ba
       -0.06581474 0.32254127 0.10908136 -0.0006346678
0003c0 90 6c 54 bd 44 28 42 bd 25 0c ac bd 4e aa 29 be
       -0.051861346 -0.04740168 -0.08400754 -0.16568872
0003d0 15 0c 48 3d 39 b2 b4 3e b2 4f e5 bd a1 f3 2c 3e
       0.048839647 0.35292223 -0.11196841 0.16889812
0003e0 87 a2 3c bd 5c d5 8b 3e 29 45 20 3e 57 f6 aa 3d
       -0.046053436 0.27311218 0.15651383 0.08347767
0003f0 5c 19 94 be 01 36 c3 be 94 ac 51 be 40 28 1a be
       -0.28925598 -0.3812714 -0.2047599 -0.15054417

block3.2.weight f4 [32]
000000 81 a3 c9 3f 25 b5 b3 3f 79 e3 70 3f 2f 9c d6 3f
       1.5753022 1.4039656 0.94097096 1.6766413
000010 ac e6 99 3f 60 5a 96 3f 44 2e 94 3f ba ac c8 3f
       1.202352 1.174633 1.1576619 1.5677712
000020 23 24 96 3f 21 7e 9a 3f c2 90 93 3f 90 11 99 3f
       1.1729778 1.2069741 1.1528552 1.1958485
000030 6c be a6 3f c7 b2 a0 3f df 44 8b 3f ed 3d af 3f
       1.3026862 1.2554559 1.0880393 1.3690773
000040 25 de 9a 3f 82 37 c2 3f a7 e4 b1 3f 28 a6 ad 3f
       1.2099043 1.517319 1.3897904 1.3566332
000050 b6 22 96 3f ba e3 a9 3f 0d b9 ca 3f 6d 6b a0 3f
       1.1729343 1.3272622 1.5837723 1.2532784
000060 a6 f2 8e 3f cb d9 a0 3f 25 66 73 3f f9 f8 ed 3f
       1.11678 1.2566465 0.95077735 1.8591605
000070 3e 16 dc 3f 55 a7 9d 3f fb 03 a1 3f 50 76 a3 3f
       1.7194288 1.2316691 1.257934 1.2770481

block3.2.bias f4 [32]
000000 38 97 fa be ca 10 5b be 3c e4 ea bd 4a 00 b3 be
       -0.48943496 -0.21393123 -0.114693135 -0.34961158
000010 0d c5 94 be a9 99 8d be 41 d9 74 be 72 22 e7 be
       -0.29056588 -0.27656296 -0.23911001 -0.45143467
000020 ff 95 a0 be 21 62 46 be c9 b8 90 be b4 30 a6 be
       -0.31364438 -0.1937337 -0.2826598 -0.32459033
000030 ae 77 4b be 94 9e 8e be 5a 2e 34 be bc 4c c7 be
       -0.19869873 -0.2785536 -0.17595807 -0.3892573
000040 db e0 85 be 6a 77 f3 be 1a e4 9b be 6d 17 74 be
       -0.26148114 -0.47552043 -0.30447465 -0.23837061
000050 48 2e b3 be c6 71 bf be 36 13 b7 be 9b e0 b0 be
       -0.34996247 -0.3739149 -0.35756844 -0.3454636
000060 17 5f 82 be e2 9d 9b be 59 8e 57 bd 7f 03 eb be
       -0.25463173 -0.30393893 -0.052625988 -0.45901105
000070 01 5d e8 be f0 0a a2 be 10 90 8f be f4 51 91 be
       -0.45383456 -0.3164897 -0.28039598 -0.28382838

block3.2.running_mean f4 [32]
000000 09 2e 66 be db ba 25 bd 3e 43 8f 3d a0 01 34 be
       -0.22478499 -0.040461402 0.06995247 -0.17578745
000010 75 f6 02 bc 3b cc 04 be 87 43 6d 3d b6 06 8a be
       -0.00799333 -0.12968533 0.057925727 -0.26958245
000020 fd b9 b5 bd 1a 71 8d 3d a4 f9 2f be ad 19 66 be
       -0.08873365 0.06906338 -0.17185074 -0.22470732
000030 ce f8 09 be 61 8b 48 bd 03 d5 2c be 6a e5 6c be
       -0.13473818 -0.048961047 -0.16878133 -0.2313439
000040 f5 d8 2e 3d 2e 16 81 be 52 4a 16 be ee f5 a3 bd
       0.042687375 -0.25212234 -0.14676788 -0.08005892
000050 e6 b4 81 be 6a 4b 92 3c 76 2a 53 be 82 07 41 be
       -0.25333327 0.017858226 -0.20621666 -0.1885052
000060 46 10 14 be bf 0b ce 3c a4 f5 b4 3d 34 60 56 bd
       -0.14459333 0.025152085 0.08835915 -0.05233784
000070 42 a4 5f be 88 e8 77 be 51 b4 46 bd 69 be 01 be
       -0.21840003 -0.24209797 -0.048511807 -0.12670292

block3.2.running_var f4 [32]
000000 08 0b 69 40 c5 72 95 40 1d 05 6d 40 9e fe 66 40
       3.6412983 4.67026 3.703437 3.6092906
000010 2a 21 80 40 cc e7 75 40 8a 93 60 40 c4 7c 13 40
       4.0040483 3.8422728 3.509005 2.30449
000020 ec c9 46 40 09 69 83 40 f7 ee 55 40 42 8f 1f 40
       3.1060743 4.1065717 3.3427103 2.4931188
000030 45 79 45 40 6b 49 a3 40 1a 8a 48 40 9f 3f 4b 40
       3.0855267 5.102712 3.133429 3.1757581
000040 f3 5c 89 40 44 bf 2a 40 43 f1 3b 40 eb ee 7a 40
       4.2925963 2.667924 2.9366004 3.9208324
000050 f3 fd 33 40 c7 fd 6c 40 bc 80 5b 40 d6 03 60 40
       2.8123748 3.7029893 3.4297323 3.5002341
000060 39 1f 55 40 02 a6 81 40 61 a1 12 40 40 29 62 40
       3.3300307 4.0515146 2.2910998 3.5337677
000070 38 74 32 40 c5 d7 7e 40 bf b3 56 40 9b 8c 05 40
       2.7883434 3.9819195 3.3547208 2.0867069

fc.weight f4 [4, 224]
000000 31 d7 9c bd 53 62 73 3e 18 ae ac 3e 1d 7d a5 3e
       -0.07658232 0.23767976 0.33726573 0.32322016
000010 60 51 97 3e 21 cd 48 3e c3 e2 f6 3d 95 98 d8 3d
       0.29554272 0.196095 0.1205497 0.10575978
000020 44 ce b4 3e 07 75 a8 3d ed 14 fc 3d d4 c7 b9 3d
       0.35313618 0.08225446 0.12308679 0.09071317
000030 b8 06 da 3c fa bc 28 3e cc 8a 3e 3e 3e e7 65 bf
       0.026614532 0.16478339 0.18607634 -0.8980597
000040 2d b3 3c be 44 6f 3a be ca 48 00 bc 7b b4 f2 3c
       -0.18427725 -0.18206507 -0.007829854 0.029627075
000050 7f 49 b5 3d a2 91 4c 3c 1a e0 48 3e be 74 d1 3d
       0.08851909 0.012485893 0.19616738 0.10227345
000060 96 f0 02 3e db 51 0a 3e a9 ff 4b 3c a6 16 32 3e
       0.12787089 0.13507788 0.012451091 0.17391452
000070 19 ef 0b be 29 87 13 3f 99 f5 1f 3e 58 c6 53 3e
       -0.13665427 0.57628113 0.15621032 0.20681131
000080 96 31 95 3e b2 80 7d bd 9a b6 a0 3e fa bf 54 3f
       0.29139394 -0.06189031 0.31389314 0.83105433
000090 0c da c9 bc ed f5 57 be 4c 7f 12 be 5c 48 aa bd
       -0.024640106 -0.21089907 -0.14306372 -0.08314583
0000a0 8a 55 43 bd 69 e3 1d be d8 f4 b5 3e 41 d0 60 be
       -0.047689 -0.15418781 0.35538363 -0.21954443
0000b0 07 86 50 3d 21 ca c3 3d d0 80 e2 ba 4c 9a d8 3d
       0.05090907 0.095600374 -0.0017280821 0.10576305
0000c0 83 3b 9e 3e 6d df 00 be 64 a5 2d 3c b4 d5 a7 3d
       0.3090478 -0.1258523 0.010598514 0.081950575
0000d0 df a1 8e 3c 00 b9 e7 3c 20 1e 80 3c 78 05 13 bd
       0.01741117 0.028286457 0.015639365 -0.035893887
0000e0 5e 9d 5b 3d 84 89 06 3f 85 8b 2b 3e 66 e2 5a 3e
       0.053616874 0.5255358 0.16752441 0.21375427
0000f0 a2 2c 6a 3e 8a c7 50 3d c6 83 3a 3e 46 06 73 3d
       0.22868589 0.050971545 0.1821433 0.059332155
000100 0f 2b 4b bf 0c 2a a6 be 6d a7 dd bd e7 04 25 be
       -0.7936258 -0.32453954 -0.108229496 -0.16115151
000110 59 59 08 be a1 d7 2b 3d a2 e8 ef 3e cd 56 c9 be
       -0.13315333 0.041953687 0.46857172 -0.39324036
000120 22 fd 0b be da 96 61 be 33 1c 2c be c5 37 1f bd
       -0.13670781 -0.22030202 -0.16807632 -0.038871545
000130 ec 28 22 be e6 6c 26 be 59 d2 43 be f5 fc a5 bc
       -0.15835923 -0.16252479 -0.1912321 -0.02026222
000140 cb ee 82 bd e6 df c5 bd f1 2a 3b 3c 7b af c2 bc
       -0.063932024 -0.09661846 0.011423812 -0.023765316
000150 ad 31 21 3d d9 41 ef 3d ec 8c 82 bd e8 7f 84 bc
       0.039354015 0.11682481 -0.06374535 -0.016174272
000160 d5 fb 18 3d 8b 9e 94 3c da 86 85 3c 3c 44 00 3f
       0.03734954 0.018142005 0.016299654 0.5010412
000170 d7 d4 15 bf e2 39 e6 bd 35 2b b5 3c 10 5a ba 3d
       -0.5852789 -0.11241509 0.02211533 0.09099209
000180 33 a9 bd bd b7 7c e9 3d a5 d0 c1 3e 23 3a 76 bd
       -0.09260788 0.114007406 0.37854496 -0.060114037
000190 a2 9e e8 bc 40 b7 a1 3d ca 34 8e bc 56 67 18 3e
       -0.028395955 0.0789628 -0.017359156 0.1488317
0001a0 a8 21 fc 3c 6e 03 95 3d 90 24 b7 3e cb 19 b2 3e
       0.030777767 0.07276045 0.35770082 0.34785303
0001b0 c7 8d 98 3e 67 2c 8e 3e 5d aa 54 3e b6 7b 03 3e
       0.29795668 0.2776825 0.20768113 0.1284016
0001c0 4d b8 fc 3c 9e 58 55 be 1f e5 3e 3e 6d 5e a4 3d
       0.0308496 -0.20834586 0.1864209 0.08025823
0001d0 b2 b2 b5 3e b4 30 20 3e d4 4c ad 3e d5 9f 38 be
       0.35487896 0.15643579 0.33847678 -0.18029721
0001e0 42 c6 bd 3b 08 aa 8a 3d 01 be ab bc 0c 1f 21 bd
       0.0057914564 0.06770712 -0.020964624 -0.03933625
0001f0 d5 98 45 3d 92 c6 e0 bc af d9 98 bd 0c e2 17 3e
       0.048241455 -0.027438436 -0.07463395 0.14832324
000200 23 71 2b 3e 64 7d 45 3e da cb 02 3e 54 29 57 3e
       0.16742377 0.19286114 0.12773076 0.21011859
000210 80 27 78 3e 31 49 66 3e ad 7c 47 3e a7 23 9f 3d
       0.24233818 0.22488858 0.19481154 0.07770472
000220 b2 47 dd 3d 0f 7d ea 3d b1 bf 3c 3c 6e 67 7b 3e
       0.108046904 0.11449634 0.011520312 0.24551174
000230 d2 5f b7 bd 11 c3 78 bd 6e 1f 33 3d c2 ee e8 bc
       -0.08953823 -0.060732905 0.043731146 -0.028434161
000240 b2 7f a0 bc 64 95 c9 3d 0b c8 20 bd 31 99 0c bf
       -0.01959214 0.09842947 -0.039253276 -0.5492125
000250 39 c4 f3 3b 1f 6e 1a be a1 0c d7 3d f9 ee 35 3d
       0.007439163 -0.1508107 0.10500456 0.044417355
000260 da 69 85 bc 35 a9 0d 3e 98 9a 21 3d f6 bf 86 3e
       -0.016285826 0.13834079 0.039454073 0.2631833
000270 53 d1 34 3e 71 33 3a 3e a3 d2 03 3e ac a7 91 3d
       0.17657976 0.18183686 0.1287332 0.07112059
000280 af ff 21 3e 8e c6 64 be ac d2 ec bd 82 b6 bf 3d
       0.15820192 -0.22341368 -0.1156362 0.093609825
000290 24 f4 c4 bd e8 41 5c bc 78 18 88 3c f1 71 2c bd
       -0.09616879 -0.013443448 0.01661323 -0.04210085
0002a0 d1 ae 98 3e cc e7 bc 3c 7d 4d bb bd 4c f3 8a bd
       0.29820874 0.023059748 -0.09145639 -0.067846864
0002b0 73 e6 0f be 36 f1 1a be 3b 36 91 be 94 b8 a7 be
       -0.14052753 -0.15131077 -0.28361687 -0.3275801
0002c0 fe e2 e3 3d a5 0b 40 3c 04 96 a3 bd 97 ef bd 3d
       0.1112728 0.011721526 -0.079875976 0.09274214
0002d0 6f b2 30 3d 24 2d d3 3c 58 5e 12 3e 45 dc 24 bf
       0.043138918 0.02577836 0.14293802 -0.64398605
0002e0 9a f3 a0 be 78 60 91 be f9 02 d5 bd 1a 39 f7 3b
       -0.31435853 -0.28393912 -0.104009576 0.007544649
0002f0 bb 59 23 bd 3a 66 64 be ba 39 d9 3d f5 58 76 3e
       -0.039880496 -0.22304621 0.106067136 0.24057372
000300 0f e6 5b 3e e4 a0 26 3e 84 e6 8d 3d e6 3d f1 3d
       0.21474479 0.16272312 0.06928733 0.11779384
000310 b4 c4 ed bd bc 22 8a 3d 21 c6 78 3e 1d 0b 10 3e
       -0.11609784 0.06744906 0.2429433 0.1406674
000320 ab 3c 5f 3e 31 7c 4c 3e 9d 1d 9e 3d 75 fa 3f 3f
       0.21800487 0.1996925 0.07720492 0.7499154
000330 33 ed 89 3e 0d 30 52 3e 41 d4 37 3e 8e 43 11 3d
       0.2693878 0.20526142 0.17952062 0.035464816
000340 f2 4f 63 3e 4f f4 59 3e 49 02 77 3e 69 07 a6 be
       0.22198465 0.21284603 0.24121965 -0.32427529
000350 a2 28 84 bb 40 c0 be bd 78 e1 51 3d ba 18 55 bd
       -0.004033164 -0.093140125 0.051240414 -0.052025534
000360 16 39 f9 3d 9a aa 52 bc 9e 84 88 3c 0d 99 e3 bd
       0.121690914 -0.012858057 0.0166648 -0.111131765
000370 75 a3 2e 3d 14 03 9f bd 40 7d c6 3d e2 a0 dd bc
       0.042636354 -0.07764259 0.09691858 -0.027054254
000380 ac 5f 40 be 91 ef 86 bd 99 33 b3 bd ba 9a fa 3b
       -0.18786496 -0.065886624 -0.08750076 0.0076478394
000390 0c 81 1b bd a5 19 44 3d 86 32 a0 3c 02 ac bd 3d
       -0.037964866 0.04787602 0.019555341 0.092613235
0003a0 e8 8a 00 3e 03 03 f1 3d 4e 71 24 3d 6b c4 dd b9
       0.12552989 0.117681526 0.04014712 -0.00042298748
0003b0 f2 c0 a7 bc 61 fb ba bc 5c 4f 02 3d e4 6b 3c 3e
       -0.020477746 -0.022824945 0.031813964 0.18400532
0003c0 ae 59 f8 3d 78 69 9b 3d 2b 15 89 3c d2 46 9d b9
       0.1212648 0.07588476 0.016733726 -0.0002999814
0003d0 a7 69 12 bb cd 13 d2 3b 4f 2d 6b 3e 8a de be 3d
       -0.0022340806 0.006411052 0.22966503 0.0931979
0003e0 16 96 c9 3d b2 66 24 3e aa f2 f4 3d 87 49 21 3e
       0.0984308 0.160548 0.11960347 0.15750705
0003f0 dc 47 43 3c 58 ae 0f bf 5e 41 87 be c8 3e 83 be
       0.011918988 -0.561254 -0.2641706 -0.25633836

fc.bias f4 [4]
000000 9e 28 c0 3d 0d d9 59 3e 75 b1 4c be f2 49 aa be
       0.09382747 0.21274205 -0.1998957 -0.3325954
