eegnet_model.pth (torch, 21396 bytes, 18 tensors)

block1.0.weight f4 [16, 1, 1, 32]
0	0xbe47727a	-0.19477263
1	0xbb386ee1	-0.002814226
2	0x3e55356d	0.20821162
3	0x3e52918f	0.20563339
4	0xbd8d8b6b	-0.069113575
5	0xbd067258	-0.03282389
6	0xbe66861d	-0.22512098
7	0xbe8691fc	-0.26283252
8	0x3db69058	0.0891425
9	0x3e5830ce	0.21112368
10	0x3d57394d	0.05254488
11	0x3e827b8c	0.25484884
12	0xbc304704	-0.010759119
13	0xbe9673fd	-0.29385367
14	0xbd226d62	-0.039655097
15	0xbe7056f2	-0.23470667
16	0x3e524b5d	0.20536561
17	0x3d15452e	0.036442928
18	0x3e626fcc	0.2211296
19	0x3e1f07d7	0.15530334
20	0xbc1c6eff	-0.009547948
21	0xbe5edc9c	-0.21763843
22	0xbea7e1cc	-0.32789457
23	0xbc283ca8	-0.010268368
24	0x3e0f50d7	0.13995682
25	0x3d9c2636	0.07624476
26	0x3e8e980e	0.27850384
27	0xbd3f3f5a	-0.046691276
28	0x3ce2c9df	0.02768415
29	0xbea5fe8e	-0.32420772
30	0xbd7d4356	-0.061831795
31	0x3e6e65b8	0.2328099
32	0x3eaac3ee	0.33352607
33	0x3e18fa54	0.14939243
34	0x3dd02e8e	0.101651296
35	0xbea1a670	-0.31572294
36	0xbd735070	-0.059402883
37	0xbdffe0d0	-0.124940515
38	0x3dc18cc2	0.094506755
39	0x3e3e1223	0.18561606
40	0x3d89f159	0.067354865
41	0x3dc85f9e	0.097838625
42	0x3de45247	0.11148506
43	0x3dc3ee77	0.09566968
44	0xbdf2919b	-0.11844178
45	0xbeb36643	-0.35038957
46	0xbe3f114a	-0.18658939
47	0xbd5f3b10	-0.054499686
48	0x3de6f037	0.11276286
49	0x3e148522	0.14503911
50	0x3e1625fa	0.14662924
51	0x3dd7747a	0.10520263
52	0xbc9a0546	-0.018801343
53	0xbc8f0132	-0.017456625
54	0x3d2aa7e4	0.04166402
55	0xbe78cce8	-0.24296916
56	0x3e0304bf	0.12794779
57	0x3e5a98c8	0.21347344
58	0x3e669bab	0.2252032
59	0x3caaa020	0.020828307
60	0x3cbe0180	0.023194075
61	0x3e245dad	0.1605136
62	0xbe19fcc0	-0.15037823
63	0xbe2c7638	-0.16841972
64	0xbe29e5e3	-0.16591601
65	0x3dafb945	0.08580259
66	0x3e0dd0f2	0.13849238
67	0x3e0c4445	0.13697918
68	0x3d0d1dee	0.03445237
69	0xbc1b6211	-0.00948383
70	0x3e002049	0.12512316
71	0x3ca866c3	0.020556813
72	0x3c88c985	0.016697655
73	0x3c03d1b3	0.008045602
74	0x3d9e0927	0.077165894
75	0x3d967e90	0.07348359
76	0x3e487785	0.19576843
77	0x3e0f58b2	0.13998678
78	0x3e7310ef	0.23736928
79	0x3e9fa309	0.31179073
80	0xbdb2bdfd	-0.08727644
81	0x3bf07286	0.007337871
82	0x3e22db02	0.15903857
83	0x3d6c5762	0.057700522
84	0x3e577d2d	0.21043845
85	0x3ed5ca59	0.41755942
86	0x3ddfd85f	0.109299414
87	0x3cda7042	0.026664857
88	0x3e27354a	0.16328922
89	0x3e046dc7	0.12932502
90	0x3dbf0dac	0.093287796
91	0x3d8f8d8e	0.07009421
92	0x3d36136d	0.04445212
93	0x3de4489b	0.11146661
94	0x3bfd6508	0.007732991
95	0x3f057f20	0.521471
96	0x3e47360c	0.19454211
97	0xbe213d64	-0.15746075
98	0xbe937f08	-0.28807855
99	0xbe8090b3	-0.25110397
100	0xbc6ace9e	-0.014331488
101	0x3e43dc6a	0.1912705
102	0x3e6019ea	0.21884885
103	0x3dfa0129	0.122072525
104	0xbbf68e32	-0.007524275
105	0xbd55b9d1	-0.05217916
106	0xbdfb8679	-0.12281508
107	0xbdea3a48	-0.114368975
108	0xbd57459f	-0.05255663
109	0xbe09d6f7	-0.13460909
110	0xbe899c7b	-0.26877198
111	0x3e46194e	0.1934559
112	0x3e75e595	0.2401336
113	0x3e71ebcc	0.23625106
114	0xbd78013b	-0.06054805
115	0x3d62ea23	0.05539907
116	0xbddc213c	-0.107485265
117	0x3d3f54ac	0.04671161
118	0xbe631890	-0.22177339
119	0xbe4f00c8	-0.20215142
120	0x3c839a89	0.016064899
121	0xbe13222e	-0.14368507
122	0x3d85f7ec	0.06541428
123	0x3e654ad2	0.22391823
124	0x3e6b3b05	0.22971733
125	0x3d4b9801	0.04970551
126	0xbe2d6590	-0.16933274
127	0xbe94555b	-0.2897137
128	0x3e9b6fe7	0.30358812
129	0x3db4c4bf	0.08826589
130	0x3bd89b37	0.0066103
131	0xbe5b555b	-0.2141928
132	0xbe702b66	-0.23454055
133	0x3cc21837	0.023693187
134	0x3dbb6b8c	0.09151372
135	0xbda4dfd2	-0.08050503
136	0x3e8694b4	0.26285326
137	0x3e98d9ab	0.29853567
138	0x3d36f4b2	0.044666953
139	0xbd0a27fd	-0.033729542
140	0xbe1ba04c	-0.15197867
141	0xbe952bee	-0.29135078
142	0xbe87c1a5	-0.26514927
143	0xbe228d97	-0.15874325
144	0x3e5e4dd2	0.21709374
145	0x3e9a039a	0.30080873
146	0x3e628ee6	0.22124824
147	0x3d94c439	0.07263989
148	0x3d1b9cb6	0.037991248
149	0xbe2d3c47	-0.16917525
150	0xbe5c918b	-0.21539895
151	0xbdfb73f5	-0.122779764
152	0x3d6f4b1f	0.05842125
153	0xbc88a032	-0.01667795
154	0x3e515f01	0.20446397
155	0x3dc1eec6	0.094693705
156	0x3e05c292	0.13062504
157	0x3e014985	0.12625702
158	0xbd837ea4	-0.06420639
159	0xbe63cccd	-0.22246094
160	0x3e6c18b2	0.23056296
161	0x3df1508b	0.117829405
162	0xbe3cb117	-0.1842693
163	0x3d246fcd	0.040145684
164	0x3e42f8d4	0.19040233
165	0x3e751e1a	0.23937264
166	0x3da3f815	0.08006302
167	0x3d96c6c2	0.07362129
168	0x3e2252e0	0.15851927
169	0xbe488a37	-0.19583975
170	0xbcfb04f7	-0.030642016
171	0x3e85cfaf	0.26135013
172	0x3e1b147e	0.15144536
173	0x3e9c5265	0.30531612
174	0x3e294bd8	0.16532838
175	0xbe35b466	-0.17744598
176	0xbdf299e0	-0.118457556
177	0x3dfdf727	0.12400656
178	0x3e0ed8e7	0.13949929
179	0x3e3295c2	0.1743994
180	0x3df76059	0.12078924
181	0x3e42672b	0.18984668
182	0xbe3235a0	-0.17403269
183	0xbe43e34f	-0.1912968
184	0x3dacb3b9	0.08432717
185	0x3e73ef61	0.23821785
186	0x3dd24cf7	0.10268586
187	0x3dfe5778	0.12419027
188	0xbe549275	-0.20758994
189	0xbe545be5	-0.2073818
190	0xbc858fcb	-0.016303917
191	0x3e95a653	0.29228458
192	0x3e4def47	0.20110808
193	0x3d9e8528	0.07740241
194	0x3e348f4f	0.17632793
195	0xbd8b8b75	-0.06813709
196	0x3e2596f6	0.16170868
197	0xbda4188d	-0.08012495
198	0x3e38ce27	0.18047391
199	0xbda30601	-0.079601295
200	0xbdf73ca7	-0.120721154
201	0xbe5ff7df	-0.21871899
202	0xbe9d0744	-0.30669606
203	0xbdf7d4f8	-0.121011674
204	0xbe54fb2e	-0.20798942
205	0xbe1543fc	-0.14576715
206	0xbe4201c4	-0.18945986
207	0x3e484bb1	0.19560124
208	0x3e650c51	0.2236798
209	0x3e8b15b7	0.27165005
210	0x3e22cae7	0.15897714
211	0x3e760e00	0.24028778
212	0xbd57a3bb	-0.05264638
213	0x3dbbcd98	0.09170073
214	0xbe0b3deb	-0.13597839
215	0x3d83d48e	0.06437026
216	0x3d12292f	0.035683807
217	0xbd37e692	-0.044897623
218	0xbd3b9695	-0.045797903
219	0xbdd2b17d	-0.102877595
220	0xbdc1f2e6	-0.09470157
221	0xbe1c8f3e	-0.15289018
222	0xbea24785	-0.3169519
223	0xbe896c6a	-0.26840526
224	0xbf0a5fcd	-0.5405243
225	0xbe6f94c4	-0.23396593
226	0xbd4949f1	-0.04914278
227	0x3e5d9db5	0.21642192
228	0x3e7e63f6	0.2484282
229	0x3e407ab6	0.1879681
230	0x3e530de9	0.20610775
231	0x3d2c2a20	0.04203236
232	0xbca478bc	-0.020077102
233	0xbd40eb7a	-0.047099568
234	0xbe11c1fa	-0.14234152
235	0xbd941933	-0.07231369
236	0xbe192a0f	-0.1495745
237	0xbe13d40e	-0.14436361
238	0x3e55e78a	0.20889106
239	0xbd0c69d9	-0.03428063
240	0x3e2e27b0	0.17007327
241	0x3e080ea5	0.13286836
242	0x3e2ce701	0.16884996
243	0xbd11374f	-0.035453137
244	0xbc1d5d04	-0.009604696
245	0x3d8ce3fa	0.068794206
246	0xbd038389	-0.032107864
247	0xbe234140	-0.1594286
248	0xbe80e4da	-0.251746
249	0xbe3b3eca	-0.18285671
250	0xbc00fcba	-0.007872755
251	0x3e1abcb3	0.15111046
252	0x3de9fad2	0.11424793
253	0x3deb169e	0.11478923
254	0x3e0aa567	0.13539658
255	0x3d3c57d9	0.045982216

block1.1.weight f4 [16]
0	0x400fe8e9	2.2485907
1	0x3ff88155	1.9414469
2	0x3f937a46	1.152169
3	0x3ffbf17f	1.9683074
4	0x4000dd67	2.0135133
5	0x3f8e8e7d	1.1137234
6	0x3fff1cfd	1.9930722
7	0x3fd4d709	1.6628124
8	0x3fe03f22	1.7519267
9	0x3ff66060	1.9248161
10	0x3f9de24f	1.2334689
11	0x3fad2174	1.3525834
12	0x40471a5a	3.1109834
13	0x40184baf	2.3796194
14	0x3fd7eac5	1.6868521
15	0x3fbaea1c	1.4602695

block1.1.bias f4 [16]
0	0x3e1cd61e	0.15316054
1	0x3caa3409	0.020776765
2	0xbe0ba167	-0.13635789
3	0x3db24a22	0.08705546
4	0xbe4cdbb0	-0.20005679
5	0x3d8400c6	0.0644546
6	0xbdbc105c	-0.09182808
7	0xbdfe4d8b	-0.12417134
8	0x3d5680d3	0.05236895
9	0x3daf058e	0.08545981
10	0xbd76fb51	-0.060298268
11	0xbbca12e0	-0.006166801
12	0xbd88ea07	-0.06685262
13	0x3cfc00b6	0.030762058
14	0x3df13528	0.11777717
15	0xbc505b1f	-0.012717037

block1.1.running_mean f4 [16]
0	0xb7bac137	-2.22629e-05
1	0xb7400701	-1.14457225e-05
2	0xb9ba1d73	-0.00035498626
3	0x38c22719	9.2579234e-05
4	0xb85ab8f6	-5.214751e-05
5	0xb8acc80d	-8.2388615e-05
6	0x3a1517ab	0.0005687426
7	0xb9558f70	-0.00020366698
8	0xb7fab2ad	-2.9885525e-05
9	0x3a15a1c9	0.0005708007
10	0x39852c4a	0.00025400735
11	0xb93929f6	-0.00017658607
12	0x392d957f	0.00016554257
13	0x3a494dc6	0.00076791306
14	0x3807f06f	3.241043e-05
15	0x38c370b8	9.31932e-05

block1.1.running_var f4 [16]
0	0x3f0e571b	0.5560166
1	0x3f7a71a6	0.97829664
2	0x3f52fe4b	0.8241927
3	0x3f5a9528	0.85383844
4	0x3f998aa8	1.199544
5	0x3ee22566	0.44169158
6	0x403e8a69	2.977198
7	0x3fb6b836	1.4274967
8	0x3fb4cf9d	1.4125859
9	0x4024a761	2.572716
10	0x409ff4aa	4.998616
11	0x3fcb2916	1.5871913
12	0x3ff2981a	1.8952668
13	0x405e51fb	3.4737537
14	0x4001cb67	2.0280397
15	0x3ffc5a4b	1.9715055

block2.0.weight f4 [32, 1, 22, 1]
0	0x3e41e681	0.18935587
1	0x3c83c430	0.01608476
2	0xbe83f69d	-0.25774089
3	0x3e601dd8	0.21886384
4	0x3d9b8aa3	0.07594802
5	0x3e150882	0.14554027
6	0x3da003b3	0.078132056
7	0xbd5764b4	-0.052586272
8	0x3e2561de	0.16150615
9	0x3d1accf5	0.03779312
10	0xbe7b5acb	-0.24546354
11	0xbeec4d40	-0.46152687
12	0x3e26d0d4	0.16290599
13	0x3d2e8999	0.042611692
14	0xbd80760d	-0.062725164
15	0xbe08e359	-0.13367976
16	0xbe8ba8bc	-0.27277172
17	0xbe4e7675	-0.20162375
18	0x3db5b348	0.08872086
19	0x3e35f67c	0.17769808
20	0x3deaaf6e	0.11459242
21	0x3cc491e2	0.023995344
22	0xbe6aa422	-0.22914174
23	0xbe5c9c3f	-0.21543978
24	0x3cdb69ba	0.026783813
25	0x3d094f59	0.033522937
26	0x3d3560b5	0.04428168
27	0xbd934138	-0.07190174
28	0xbe559116	-0.20856127
29	0x3ed05f98	0.40697932
30	0x3ee67dfc	0.45017993
31	0x3d48eb27	0.049052384
32	0xbd9b6c31	-0.07588995
33	0xbcb3a729	-0.021930294
34	0x3e3580fc	0.17724985
35	0x3e2a323c	0.16620725
36	0xbe564a98	-0.20926893
37	0xbe2155fa	-0.15755454
38	0xbe10cc6e	-0.14140484
39	0x3cb6f91e	0.022335585
40	0xbdb1a3cb	-0.08673819
41	0xbe139887	-0.14413653
42	0x3dab2a33	0.08357658
43	0xbd14155e	-0.03615319
44	0xbdcc2026	-0.09967069
45	0xbc27e8a0	-0.010248333
46	0xbb3befa5	-0.0028676775
47	0x3d2ccbeb	0.04218666
48	0x3eb667eb	0.35626158
49	0x3ebb9936	0.36640328
50	0x3cf68c44	0.03009618
51	0xbe8b94c8	-0.2726195
52	0xbd314fb4	-0.0432889
53	0xbc28fe99	-0.010314607
54	0x3d85c54d	0.06531773
55	0xbe4b33c5	-0.19843967
56	0xbc69540d	-0.014241231
57	0x3eb134d7	0.34610626
58	0xbdc90803	-0.09815981
59	0x3cb8fb0f	0.022580652
60	0xbe3be94b	-0.18350713
61	0xbef5a74b	-0.47979197
62	0x3d84968d	0.06474028
63	0xbde1b2e5	-0.110204495
64	0x3e722bb5	0.23649485
65	0xbc75e317	-0.015007756
66	0xbbab8371	-0.005234175
67	0xbc869b4d	-0.016431475
68	0x3c8cc7e9	0.017185168
69	0x3d8a90b4	0.06765881
70	0x3e8a6483	0.2702981
71	0x3e3f48db	0.18680136
72	0xbd12aeba	-0.035811163
73	0xbd2c3494	-0.04204233
74	0xbdf8b674	-0.12144175
75	0x3e68d3ce	0.22737047
76	0xbe62634e	-0.22108194
77	0xbea6205e	-0.3244657
78	0x3e525891	0.20541598
79	0x3e18fc7e	0.14940068
80	0xbce15579	-0.027506577
81	0xbc3b2128	-0.011421479
82	0xbea3271d	-0.3186578
83	0xbe978c1f	-0.2959909
84	0x3d167b1d	0.036738504
85	0x3dbba633	0.09162559
86	0x3e239467	0.1597458
87	0xbbf216ba	-0.007387963
88	0x3d8955f9	0.06705851
89	0x3df4ca63	0.11952665
90	0xbda93970	-0.082629085
91	0x3d331432	0.04372043
92	0xbdbde046	-0.092712924
93	0xbd9d9f0e	-0.07696353
94	0xbe82be9b	-0.25536045
95	0x3e08f8dc	0.13376182
96	0x3d95797d	0.07298563
97	0x3df55ab8	0.11980194
98	0xbe27786d	-0.16354533
99	0xbd19af4e	-0.0375207
100	0x3e84f80c	0.25970495
101	0xbd99172f	-0.07475125
102	0xbe03499c	-0.12821048
103	0xbc9d1244	-0.019173749
104	0xbe143b59	-0.14475764
105	0xb957367a	-0.00020524292
106	0x3f1f23fc	0.6216428
107	0x3e120d57	0.14262901
108	0xbec5c7d5	-0.38629022
109	0xbe27978e	-0.16366407
110	0x3da0f256	0.07858722
111	0x3d8e5c11	0.06951154
112	0x3cf8684e	0.030323174
113	0xbda5deeb	-0.08099159
114	0x3d856c7a	0.06514831
115	0xbe3399fc	-0.17539209
116	0x3d697646	0.05699756
117	0x3d640158	0.055665344
118	0x3d7825da	0.060582973
119	0x3d9eefaa	0.07760556
120	0xbebe6706	-0.37187976
121	0x3dae36c6	0.08506541
122	0xbe876d86	-0.26450747
123	0x3d849544	0.06473783
124	0xbd7784cc	-0.06042938
125	0xbb7ec3b2	-0.0038873968
126	0x3de85393	0.113440655
127	0x3e9eb697	0.3099868
128	0xbef41aa6	-0.4767658
129	0xbdf3206f	-0.118714206
130	0x3f09dc65	0.5385192
131	0xbd833851	-0.06407226
132	0xbdff7ba7	-0.12474757
133	0xbe6be441	-0.2303629
134	0xbd55acea	-0.052166857
135	0xbdbc877f	-0.09205531
136	0x3e02ea8d	0.12784787
137	0x3d9753cf	0.07389032
138	0xbdaaaef6	-0.083341524
139	0x3e84679a	0.25860292
140	0x3f05de3c	0.5229223
141	0xbe84dc09	-0.25949124
142	0xbdc5e4ff	-0.09662818
143	0xbcce1ae6	-0.02515931
144	0x3e83400e	0.25634807
145	0xbce07010	-0.027397186
146	0x3e4886b5	0.19582637
147	0x3e45d7d1	0.19320609
148	0xbe3972b8	-0.18110168
149	0xbe88f1f4	-0.26747096
150	0xbe53c3a8	-0.20680106
151	0xbdc083a5	-0.09400109
152	0x3e16967c	0.14705843
153	0x3c665c14	0.014060039
154	0x3e034c94	0.12822181
155	0x3dfc9132	0.12332381
156	0xbc1448c5	-0.009050553
157	0x3cb9f2b1	0.022698732
158	0xbe90b146	-0.2826025
159	0xbe6074bd	-0.21919532
160	0xbe2bd0ae	-0.16778824
161	0x3be60923	0.007020132
162	0x3e99e7f3	0.30059776
163	0xbeb6601d	-0.35620204
164	0xbe02c94c	-0.12772101
165	0x3d36120d	0.04445081
166	0x3de0692f	0.10957562
167	0xbe3f3127	-0.18671094
168	0xbc018984	-0.007906321
169	0xbe3b0138	-0.18262184
170	0x3d46a397	0.048495855
171	0x3eaf21d2	0.3420549
172	0x3e5f5d4e	0.21812937
173	0x3e8343c6	0.25637645
174	0x3deb6b4b	0.11495074
175	0xbe248442	-0.16066077
176	0x3dab3ea5	0.08361558
177	0x3e1b3b67	0.15159379
178	0xbe1d9282	-0.1538792
179	0x3dce033d	0.100592114
180	0x3ce6e1cb	0.028183838
181	0x3af65a2e	0.0018795186
182	0x3e12d862	0.14340356
183	0xbf0a9917	-0.54139847
184	0xbeef22d3	-0.46706256
185	0xbd922937	-0.07136767
186	0x3d87719a	0.06613465
187	0x3d1054b8	0.035237044
188	0x3d05ea10	0.032693923
189	0x3e95fb0c	0.29293096
190	0x3e5d0b08	0.2158624
191	0x3e12c5d7	0.14333282
192	0xbd54e744	-0.051978365
193	0xbe25f41b	-0.162064
194	0x3d696584	0.05698158
195	0x3e38c129	0.18042435
196	0x3d61fa7d	0.055170525
197	0xbe58227c	-0.21106905
198	0x3e3027d3	0.17202692
199	0x3e287628	0.16451323
200	0xbe4cbdc2	-0.19994262
201	0x3c65f37e	0.014035104
202	0x3d18d60b	0.037313502
203	0xbdaf783e	-0.08567856
204	0x3d91dd79	0.07122321
205	0xbe41efda	-0.18939152
206	0xbf17a5fc	-0.5923765
207	0xbe0eabc5	-0.13932712
208	0x3e5fffb2	0.21874884
209	0xbd79a0f2	-0.060944505
210	0x3d3c226a	0.045931257
211	0x3e854cb1	0.26035073
212	0x3d9f295c	0.077715605
213	0x3e232c08	0.15934765
214	0xbce5ffd0	-0.028076082
215	0xbc396585	-0.011315708
216	0x3e44f11c	0.19232601
217	0xbd555a4f	-0.052088078
218	0xbded4ac1	-0.11586524
219	0xbd0cd40d	-0.034381915
220	0x3bd7ed5d	0.006589575
221	0x3ca85a6e	0.020550933
222	0x3c726b11	0.014796034
223	0x3cf56dd5	0.029959599
224	0xbc36bebb	-0.011153872
225	0xbd7e6577	-0.062108483
226	0xbe6a7fe4	-0.22900349
227	0xbdc593d0	-0.096473336
228	0x3c43395d	0.011915532
229	0x3dbc7c74	0.09203425
230	0x3d83592c	0.064134926
231	0x3e154622	0.14577535
232	0x3e4f213e	0.20227525
233	0x3d004852	0.03131897
234	0xbc191dc4	-0.009345476
235	0xbe019420	-0.12654161
236	0xbe84edf6	-0.259628
237	0xbdc40dbc	-0.09572932
238	0x3f124e31	0.5715056
239	0x3e4924eb	0.1964299
240	0xbeedf175	-0.4647328
241	0xbd07e11a	-0.033173658
242	0x3de46edb	0.111539565
243	0xbd098923	-0.03357805
244	0xbe9f3845	-0.31097618
245	0x3d56a866	0.05240669
246	0xbe0d6a13	-0.13809995
247	0x3dc3cc23	0.0956042
248	0xbe8909da	-0.2676533
249	0x3e6d2bee	0.23161289
250	0x3d50b7f7	0.050956693
251	0x3e73b962	0.23801187
252	0xbad851cb	-0.0016503868
253	0x3df23658	0.118267715
254	0xbeac0fe9	-0.33605888
255	0x3e5e6042	0.21716407

block2.1.weight f4 [32]
0	0x3fc96534	1.573401
1	0x3fbbecae	1.4681604
2	0x3fe4201e	1.7822301
3	0x400a6d80	2.1629333
4	0x3f721d8c	0.94576335
5	0x3f92a6a9	1.1457111
6	0x3fe250aa	1.7680867
7	0x3fe86507	1.8155831
8	0x3ffa4f0e	1.9555376
9	0x3fcec92e	1.6155145
10	0x3f5becfa	0.8590847
11	0x3faf50c6	1.3696525
12	0x3faa0aa6	1.32845
13	0x3ffae50e	1.9601152
14	0x3f953ad4	1.1658578
15	0x3fd95459	1.6978866
16	0x3fb285f8	1.3947134
17	0x3fe3f876	1.7810199
18	0x3ffc829c	1.9727359
19	0x3f98b8de	1.1931417
20	0x3fa2e3ca	1.2725766
21	0x3f8fd125	1.1235701
22	0x3f8dcf4a	1.1078885
23	0x3f9e233b	1.2354501
24	0x3fe81b55	1.8133341
25	0x400820cf	2.1270025
26	0x3fc2b0c8	1.5210199
27	0x3febd853	1.8425392
28	0x3f908426	1.1290329
29	0x3fd013e2	1.6256068
30	0x3f9fd70d	1.2487503
31	0x3fac750d	1.3473221

block2.1.bias f4 [32]
0	0xbec37508	-0.38175225
1	0xbead3b2c	-0.33834207
2	0xbf078010	-0.5292978
3	0xbf183d04	-0.594681
4	0xbe3c1e06	-0.18370828
5	0xbe7df256	-0.24799475
6	0xbef253a9	-0.47329453
7	0xbf17241c	-0.59039474
8	0xbf02902e	-0.5100125
9	0xbedeb0cc	-0.4349426
10	0xbe26f750	-0.1630528
11	0xbcc0e6ab	-0.023547491
12	0xbe9a2d1b	-0.30112538
13	0xbf0eac78	-0.55731916
14	0xbe99ad0f	-0.30014846
15	0xbf012f3f	-0.50462717
16	0xbe5236cb	-0.20528714
17	0xbf115e90	-0.56784916
18	0xbefc1275	-0.49232832
19	0xbe66a3d3	-0.22523431
20	0xbd6f335f	-0.0583986
21	0xbdc72770	-0.09724319
22	0xbe5d216a	-0.21594778
23	0xbdb3fde8	-0.08788663
24	0xbf14a3b0	-0.5806227
25	0xbf18fec5	-0.5976375
26	0xbed1f3b1	-0.41006234
27	0xbee4a6fa	-0.44658643
28	0xbe9f57fb	-0.3112181
29	0xbef6ecbd	-0.48227492
30	0xbebe6caf	-0.37192294
31	0xbe70eeda	-0.23528615

block2.1.running_mean f4 [32]
0	0xbcb526d6	-0.022113245
1	0xbc914e68	-0.017737582
2	0xba2eb682	-0.0006664769
3	0xb92a231e	-0.00016225546
4	0xbafc8ea4	-0.0019268584
5	0x3b14a413	0.0022680804
6	0x3b7193ae	0.0036861706
7	0xbab140b3	-0.001352331
8	0x3c2e9522	0.010655673
9	0x3b784ea3	0.0037888668
10	0xba0f7f4a	-0.00054739846
11	0xbc73b332	-0.014874266
12	0x3cb100d7	0.021606846
13	0xbbb2f0c4	-0.0054608304
14	0x3c8275ea	0.015925366
15	0x3b452b87	0.0030085759
16	0x3bdfab52	0.006825843
17	0xba92569c	-0.0011164728
18	0xbbb4f8e9	-0.0055228365
19	0x3c09ec16	0.008418104
20	0x39b48787	0.0003443325
21	0x3b6f7747	0.00365396
22	0xb846ccd8	-4.7397654e-05
23	0xba66bf99	-0.0008802354
24	0x3b12c503	0.002239526
25	0xbb8932bf	-0.0041869576
26	0xbb21497a	-0.0024610446
27	0xba2a16ad	-0.00064883643
28	0x3cc8449b	0.024446776
29	0xbc45b471	-0.012066946
30	0xb9e1b9ab	-0.00043053678
31	0x3af3679c	0.0018570307

block2.1.running_var f4 [32]
0	0x3ee67dbc	0.45017803
1	0x3e4ad203	0.19806676
2	0x3eac80e3	0.33692083
3	0x3e937d0d	0.28806344
4	0x3d057292	0.032579966
5	0x3d2ebca4	0.04266037
6	0x3e1675ee	0.14693424
7	0x3ea05843	0.31317338
8	0x3e152371	0.14564301
9	0x3e08c8d3	0.13357858
10	0x3cf5b552	0.029993687
11	0x3e0bf763	0.1366859
12	0x3f756b43	0.95866793
13	0x3ee6fe90	0.4511609
14	0x3e9f85cb	0.31156763
15	0x3e877e2b	0.26463446
16	0x3ea0d876	0.31415147
17	0x3e17fe9c	0.1484322
18	0x3e75001d	0.23925824
19	0x3e5c8415	0.2153476
20	0x3d9c35dc	0.0762746
21	0x3d263466	0.040577315
22	0x3e781a05	0.24228676
23	0x3d75ad2f	0.059979614
24	0x3f598edb	0.84983605
25	0x3f3ad9c0	0.7298851
26	0x3e8a5864	0.27020562
27	0x3f615d6d	0.8803318
28	0x3e5cd81f	0.21566819
29	0x3e8039be	0.25044054
30	0x3d8ba251	0.06818069
31	0x3f5a7a39	0.85342747

block3.0.weight f4 [32, 1, 1, 16]
0	0xbcb57869	-0.022152143
1	0x3dda7ed2	0.1066872
2	0x3e3e53b7	0.18586622
3	0x3e3567fe	0.17715451
4	0xbbf94527	-0.0076071206
5	0x3e606d27	0.21916638
6	0x3d18115c	0.03712593
7	0x3e6cafb3	0.23113899
8	0x3db9aa66	0.09065704
9	0xbe106858	-0.14102304
10	0xbd6fd522	-0.05855287
11	0xbe55f2c3	-0.20893387
12	0x3da21f75	0.07916156
13	0x3e10e83e	0.14151093
14	0x3d6f0f61	0.058364276
15	0x3e8d079b	0.27544865
16	0xbd7af2b7	-0.061266627
17	0x3e3f684c	0.1869213
18	0xbb8684f9	-0.004105207
19	0x3e0915d3	0.13387232
20	0x3e30d342	0.17268088
21	0xbe6795f2	-0.22615793
22	0x3e192546	0.14955625
23	0xbe495545	-0.19661434
24	0xba907279	-0.0011020444
25	0x3e18897a	0.14896193
26	0xbd37cae0	-0.04487121
27	0x3e72fba0	0.237288
28	0x3d66af5e	0.056319587
29	0x3c9c786f	0.019100396
30	0x3e8f2e9c	0.27965248
31	0x3e3769a3	0.17911391
32	0x3eb0844f	0.34475943
33	0xbe274b64	-0.16337353
34	0x3e0b94bb	0.13630955
35	0x3ea1c084	0.3159219
36	0xbec14592	-0.3774839
37	0xbe065def	-0.1312177
38	0x3da974ac	0.082742065
39	0xbd13e6d9	-0.036108825
40	0x3dd0cfa8	0.10195857
41	0x3df7fc3c	0.12108657
42	0xbe06385d	-0.13107438
43	0xbe043435	-0.1291054
44	0x3e83df54	0.25756323
45	0x3db789bf	0.0896182
46	0xbd12d94a	-0.035851754
47	0x3ebd8aa8	0.3701985
48	0xbcd23771	-0.025661202
49	0x3d06adba	0.032880522
50	0xbcb9dd78	-0.022688612
51	0x3ccbc3da	0.024873663
52	0xbdc4bef1	-0.09606732
53	0xbdb9d677	-0.09074109
54	0xbd7e9a03	-0.062158596
55	0x3e13e882	0.14444163
56	0xbd2549e2	-0.040353663
57	0x3df103e4	0.1176832
58	0xbb210a0f	-0.0024572646
59	0xbb11088d	-0.002213034
60	0x3ea0b9bb	0.313917
61	0x3dd3201b	0.10308858
62	0x3db9355c	0.090433806
63	0x3e8d74bf	0.27628133
64	0xbed04e5b	-0.4068478
65	0xbd85f491	-0.06540788
66	0x3e108546	0.1411334
67	0x3d412050	0.047149956
68	0x3caf11b9	0.021370756
69	0xbd7d465c	-0.061834678
70	0x3c2fca9f	0.010729461
71	0x3e0126d1	0.12612464
72	0xbdcd8f99	-0.10037155
73	0x3d970b7b	0.073752366
74	0x3ef0588d	0.4694256
75	0x3e7ffa74	0.24997884
76	0xbeba1850	-0.36346674
77	0xbf07f810	-0.5311289
78	0x3d94b948	0.07261902
79	0x3e280128	0.16406691
80	0x3e856084	0.26050198
81	0x3e810a7c	0.2520331
82	0x3e2c6c57	0.16838203
83	0x3e3756ab	0.17904155
84	0x3d920e0e	0.07131587
85	0xbdf00dec	-0.117214054
86	0xbec6a230	-0.38795614
87	0xbdba1315	-0.09085671
88	0x3da19827	0.07890349
89	0x3d930057	0.07177799
90	0xbe7a3189	-0.24432959
91	0xbeb0dd47	-0.3454382
92	0xbd02f6be	-0.031973593
93	0x3ecd0753	0.4004465
94	0x3e7d7f03	0.24755482
95	0xbc4fde1f	-0.012687235
96	0xbc14d4e5	-0.009083961
97	0xbef85243	-0.4850026
98	0x3d16414f	0.036683377
99	0xbcfc1138	-0.03076993
100	0x3db4ba33	0.08824577
101	0xbe75b244	-0.23993784
102	0x3ee61cbf	0.44943807
103	0x3ea25604	0.3170625
104	0xbe415c04	-0.18882757
105	0xbd9668ad	-0.07344184
106	0x3e076455	0.13221867
107	0x3e5efc57	0.21775948
108	0xbd41bcce	-0.0472992
109	0x3ce38904	0.027775295
110	0x3e3b3079	0.1828021
111	0xbd8f497e	-0.069964394
112	0xbd71297a	-0.058877446
113	0x3e616441	0.220109
114	0x3e8c435f	0.2739515
115	0xbdf32645	-0.11872534
116	0x3d98f51a	0.074686244
117	0x3d5930ed	0.053025175
118	0x3e62f9b4	0.22165567
119	0xbc927c9b	-0.017881682
120	0xbc6a4809	-0.014299401
121	0x3df3a5be	0.11896847
122	0xbdd1cd15	-0.102441944
123	0xbeaedf8e	-0.34154934
124	0x3e0ba979	0.13638867
125	0xbcc4f028	-0.024040297
126	0x3e4650cf	0.19366764
127	0x3e530d74	0.206106
128	0x3e1fccd9	0.15605487
129	0x3e92f77a	0.28704435
130	0x3e1f9780	0.15585136
131	0x3d2907e5	0.041267294
132	0x3eae6a35	0.34065405
133	0x3d6f3803	0.058403026
134	0xbd7b9826	-0.061424397
135	0xbd97df79	-0.07415671
136	0xbe53146f	-0.20613264
137	0xbe1b5c13	-0.15171842
138	0x38ee615c	0.00011366859
139	0x3e66e947	0.22549926
140	0xbe1a1934	-0.15048677
141	0x3ce52fe5	0.02797694
142	0x3dbb0d43	0.09133389
143	0x3da0bdcb	0.078487
144	0xbd72e049	-0.059295926
145	0x3ee3d26a	0.4449647
146	0x3e4f2768	0.20229876
147	0xbdc33419	-0.09531421
148	0x3cc67b7c	0.024228804
149	0xbd75825c	-0.059938774
150	0x3ded7356	0.11594264
151	0xbdade3cc	-0.084907144
152	0xbc44ab51	-0.012003736
153	0xbebcf553	-0.36905918
154	0x3e31489f	0.17312859
155	0x3dd26bd0	0.1027447
156	0xbe83d4f0	-0.25748396
157	0x3e7be5ac	0.24599332
158	0x3e57fd66	0.21092758
159	0x3b959de5	0.0045659416
160	0xbe550ec7	-0.20806418
161	0xbebc614b	-0.3679298
162	0xbbeb7a04	-0.0071861763
163	0xbcce2aef	-0.025166957
164	0xbd860e74	-0.065457255
165	0xbd7da6c2	-0.06192661
166	0x3db15bdc	0.08660099
167	0x3ee18b6d	0.44051686
168	0x3e194046	0.14965925
169	0xbd1d95d0	-0.03847295
170	0xbe443548	-0.1916095
171	0x3e661d04	0.22472006
172	0x3efeb79d	0.4974946
173	0x3d8b969f	0.06815838
174	0xbeee4bcc	-0.46542203
175	0xbea28f53	-0.31749973
176	0xbe8cc8ca	-0.2749694
177	0xbc9d3668	-0.019190982
178	0x3e156ab2	0.14591482
179	0x3dbe737e	0.09299372
180	0xbd8667ef	-0.065627925
181	0xbee42890	-0.44562197
182	0xbe52d997	-0.20590816
183	0x3e487aaf	0.1957805
184	0x3e3bea1a	0.18351021
185	0x3def2a95	0.11678044
186	0x3e155bf8	0.14585865
187	0x3dc81361	0.09769321
188	0x3d908583	0.07056715
189	0xbdec6930	-0.115435004
190	0xbe830b0f	-0.25594375
191	0xbe1aba24	-0.1511007
192	0x3d461ac7	0.04836538
193	0xbe2edb87	-0.1707593
194	0x3cac9c49	0.021070616
195	0xbdc200ec	-0.09472832
196	0x3e8c844e	0.2744469
197	0xbe96c257	-0.29445145
198	0xbe2e8c4e	-0.1704571
199	0x3eaa16c4	0.33220494
200	0xbe135618	-0.14388311
201	0x3e40cede	0.18828914
202	0x3dd18abd	0.1023154
203	0xbe888746	-0.26665705
204	0x3e93a39c	0.28835762
205	0xbeae009d	-0.33984843
206	0xbd9cbb95	-0.07652966
207	0x3e6e5b4a	0.23277012
208	0xbe9f5cef	-0.3112559
209	0xbe03b34f	-0.1286137
210	0x3df4b821	0.11949182
211	0xbd81857b	-0.063242875
212	0xbebf9107	-0.37415335
213	0xbb4b6c96	-0.0031040064
214	0x3dd9a1a5	0.106265344
215	0x3d90b383	0.07065489
216	0xbc2afdf0	-0.01043652
217	0x3e2b0a38	0.16703117
218	0xbd9860a5	-0.074403085
219	0x3e282df3	0.16423778
220	0xbd08e8d0	-0.033425152
221	0xbdfdc1c8	-0.123904765
222	0x3d8affb6	0.06787054
223	0xbeb91987	-0.36152288
224	0xbdda21f4	-0.10651007
225	0x3ee2eca1	0.4432116
226	0xbe488e33	-0.19585495
227	0xbe242d90	-0.16033006
228	0x3e94bbac	0.29049432
229	0xbec3569e	-0.3815202
230	0x3e70b4e8	0.2350651
231	0xbcf59e5a	-0.029982734
232	0xbe41f659	-0.1894163
233	0x3ecc9890	0.39960146
234	0xbee899d4	-0.45429862
235	0x3cd232e1	0.025659027
236	0x3e740ac6	0.23832235
237	0xbdbce449	-0.092232294
238	0x3e19d2d7	0.15021835
239	0x3cabc099	0.020965861
240	0xbe3afa7c	-0.18259615
241	0xbe742fb8	-0.23846328
242	0x3e547fc2	0.2075186
243	0xbeaf0b7e	-0.34188455
244	0xbcbfa063	-0.023391908
245	0xbe135529	-0.14387955
246	0x3dc979de	0.098376974
247	0x3de9a60d	0.11408625
248	0xbe6381a7	-0.22217427
249	0x3e4205cc	0.18947524
250	0x3e814de4	0.25254738
251	0xbe95f8ce	-0.29291385
252	0x3e726f25	0.23675211
253	0xbe536d52	-0.20647171
254	0xbe2252ec	-0.15851945
255	0x3e19dc61	0.15025474

block3.1.weight f4 [32, 32, 1, 1]
0	0xbe436a31	-0.19083478
1	0x3dc1ded2	0.09466328
2	0xbe511aa2	-0.20420316
3	0xbe33a34f	-0.17542766
4	0x3e6348a6	0.22195682
5	0x3cb4abbf	0.022054551
6	0xbd9d0263	-0.07666471
7	0xbdc2ccfe	-0.095117554
8	0x3dc9731d	0.09836409
9	0x3e1343dc	0.14381355
10	0x3dcbb559	0.09946699
11	0x3e1d0f7c	0.15337938
12	0xbe95f399	-0.29287413
13	0x3e393945	0.18088253
14	0x3d247a0b	0.04015545
15	0xbe0b95af	-0.13631319
16	0x3e3efc3e	0.1865091
17	0xbd18d92e	-0.037316494
18	0x3e02eebf	0.12786387
19	0xbe9ba7f7	-0.30401585
20	0x3dd49f32	0.103819266
21	0xbe8e1ebe	-0.2775783
22	0x3afe6408	0.0019408474
23	0x3e1fdd77	0.15611826
24	0x3dff6845	0.1247106
25	0xbd9ded32	-0.07711257
26	0xbde5d621	-0.112224825
27	0xbe073baa	-0.13206354
28	0x3e252885	0.16128738
29	0x3e4586b5	0.19289668
30	0x3dfe53c6	0.12418322
31	0xbe1bd4fd	-0.15217967
32	0x3d28e986	0.04123833
33	0xbde426c7	-0.11140209
34	0x3e49bf83	0.19701962
35	0xbcb8d189	-0.022560852
36	0xbe658d32	-0.22417143
37	0xbe5d1591	-0.21590258
38	0x3b773fe3	0.0037727288
39	0xbba0da7c	-0.004908858
40	0xbe157874	-0.1459673
41	0xbe6efee4	-0.2333942
42	0xbec7c90f	-0.39020583
43	0x3b55dbe6	0.003263229
44	0xbe7ec914	-0.24881393
45	0xbe2ce6c4	-0.16884905
46	0x3e68f56c	0.22749871
47	0xbc0113bf	-0.007878243
48	0x3e6745c6	0.2258521
49	0x3c0b9824	0.00852016
50	0x3e873bcf	0.26412818
51	0x3e7e9e9b	0.2486519
52	0x3e5c9fec	0.2154538
53	0x3f0aa245	0.54153854
54	0xbda89416	-0.0823137
55	0x3e4d2669	0.20034184
56	0x3d735c28	0.05941406
57	0xbe50d997	-0.20395504
58	0x3e21462b	0.15749423
59	0xbc8b5b64	-0.017011352
60	0xbe57d25b	-0.21076338
61	0xbe87b791	-0.26507238
62	0x3e0b3349	0.13593782
63	0x3cabb8ea	0.020962197
64	0xbd880db3	-0.06643238
65	0xbe318b2a	-0.17338243
66	0xbde7769b	-0.11301919
67	0xbd44fc6a	-0.048092283
68	0xbeb3f44c	-0.3514732
69	0xbe45ba74	-0.19309407
70	0xbe2c119d	-0.16803594
71	0xbcade207	-0.021225942
72	0x3df748a8	0.12074405
73	0xbdc1d048	-0.094635546
74	0xbe74ae19	-0.23894538
75	0xbd76b8f1	-0.060234968
76	0xbd2de1c5	-0.04245164
77	0x3db60b40	0.088888645
78	0xbe93edcc	-0.28892362
79	0x3d67e2f3	0.05661292
80	0xbe9fa357	-0.31179306
81	0xbe841666	-0.2579834
82	0x3dc68eb8	0.0969519
83	0xbe9564a0	-0.29178333
84	0x3dccaac1	0.09993506
85	0x3e7ff92d	0.24997397
86	0xbc282de8	-0.010264851
87	0x3e297270	0.1654756
88	0x3c1439eb	0.009047012
89	0x3c8ecf59	0.017432855
90	0x3c8be9f2	0.017079327
91	0xbddeca88	-0.108784735
92	0xbf017c6f	-0.50580496
93	0xbe2cc65e	-0.16872546
94	0x3d14b3f5	0.036304433
95	0x3e9300ed	0.28711644
96	0x3d1a3304	0.03764631
97	0xbcb3c47b	-0.021944275
98	0x3d9c9b23	0.076467775
99	0xbc478e8c	-0.012179982
100	0xbe291b37	-0.16514288
101	0xbe5b8eac	-0.21441144
102	0xbd59cbec	-0.05317299
103	0x3bfd5a55	0.0077317157
104	0xbdb12c12	-0.08650984
105	0xbe843338	-0.25820327
106	0xbea4d09a	-0.321904
107	0x3c34639a	0.011010075
108	0xbe349865	-0.17636259
109	0xbe08d8af	-0.13363908
110	0x3e7150ba	0.23565951
111	0x3c0a2462	0.008431526
112	0x3e4f86c5	0.20266254
113	0x3d3b8833	0.045784187
114	0x3e7ef399	0.24897613
115	0x3e8a5670	0.27019072
116	0x3e255f9d	0.16149755
117	0x3f039027	0.51391834
118	0xbc12ac48	-0.008952208
119	0x3e96e942	0.29474837
120	0xbb510846	-0.00318958
121	0xbe0f6a3e	-0.14005372
122	0x3d8cf084	0.06881812
123	0xbd27a85d	-0.040932048
124	0xbe8da2b2	-0.2766319
125	0xbe139d9f	-0.14415596
126	0x3d828e6f	0.06374823
127	0xbd0a30ce	-0.03373795
128	0x3e409065	0.18805082
129	0xbe90a7f6	-0.28253144
130	0xbe92d0e2	-0.2867499
131	0xbc7001a8	-0.014648832
132	0xbdfa09ac	-0.12208876
133	0xbc12c14a	-0.0089572165
134	0x3e2744c9	0.16334833
135	0x3e3955e2	0.18099168
136	0xbe825cb8	-0.25461364
137	0xbe62eeb1	-0.22161366
138	0xbe0915c2	-0.13387206
139	0x3db6faee	0.0893458
140	0x3d8f71e4	0.07004145
141	0x3d124cad	0.035717655
142	0x3e2e1386	0.16999635
143	0x3db4b60d	0.08823786
144	0x3e7883de	0.24269053
145	0x3e181d58	0.14854944
146	0x3e20026d	0.15625925
147	0x3b87da4c	0.004145896
148	0x3d44b679	0.048025582
149	0x3e099e51	0.13439299
150	0x3d9632c3	0.07333901
151	0xbc254494	-0.010087151
152	0xbe5b24a8	-0.21400702
153	0xbe127be4	-0.14305073
154	0x3d9b99e8	0.07597715
155	0xbc26ec45	-0.010188167
156	0x3df99743	0.12187054
157	0xbdc34fa5	-0.09536675
158	0xbed3bf9b	-0.4135712
159	0x3e842941	0.25812724
160	0xbc85b19c	-0.016320042
161	0x3d4c12b9	0.049822543
162	0xbb77f7fb	-0.0037837017
163	0xbdd2104d	-0.102570154
164	0x3eaf12f3	0.34194145
165	0x3e25fb0d	0.1620905
166	0x3e44a95e	0.19205233
167	0xbdb453e1	-0.08805061
168	0xbc835fbf	-0.016036866
169	0xbd479848	-0.04872921
170	0x3d1118c3	0.035424005
171	0x3c920275	0.017823437
172	0x3e70bad7	0.23508774
173	0xbdf3d017	-0.11904924
174	0x3f197d00	0.5995636
175	0xbe04d1dc	-0.1297068
176	0xbd5ec7c9	-0.05438975
177	0xbd03942d	-0.032123733
178	0x3c939a04	0.018017776
179	0xbe82fe90	-0.2558484
180	0x3eadc660	0.3394041
181	0xbebd0e65	-0.36925045
182	0x3eb27e2b	0.34861884
183	0x3d35fd3a	0.04443095
184	0x3e2d6d14	0.16936141
185	0xbdc48070	-0.0959481
186	0x3e095522	0.13411382
187	0x3cea3929	0.02859171
188	0x3e07c17c	0.13257402
189	0xbdf0f393	-0.11765208
190	0x3d96cb80	0.07363033
191	0xbe80494d	-0.25055924
192	0x3db9d271	0.09073342
193	0x3df47f84	0.11938384
194	0xbe9ac857	-0.30230972
195	0xbe009bd8	-0.1255945
196	0x3e03f81f	0.1288762
197	0x3ea564f8	0.32303596
198	0x3efdce6b	0.49571547
199	0xbe1985bc	-0.14992422
200	0x3d16c17e	0.036805622
201	0xbd9175e2	-0.071025625
202	0x3e3b7290	0.18305421
203	0x3e887c5d	0.26657382
204	0x3dc78d3e	0.09743737
205	0xbc3b8ca4	-0.011447106
206	0x3e50d2d5	0.20392926
207	0xbc918fc8	-0.017768756
208	0x3e3bc716	0.18337664
209	0x3d11eb62	0.03562487
210	0xbdc7c2e3	-0.097539686
211	0x3b8777d9	0.00413416
212	0x3d1a291a	0.037636854
213	0xbe761139	-0.24030007
214	0xbe6ac776	-0.22927651
215	0x3e90a1a5	0.28248325
216	0xbd5d5df4	-0.05404468
217	0xbc7a8576	-0.015290609
218	0x3ea8495d	0.32868472
219	0xbe04e907	-0.12979518
220	0xbe3c1c96	-0.1837028
221	0xbe9403c7	-0.28909132
222	0xbb11553b	-0.0022176045
223	0xbea61690	-0.3243909
224	0x3e31e98d	0.17374249
225	0xbd628fc6	-0.055312894
226	0xbe9ffe74	-0.3124882
227	0xbd295c01	-0.041347507
228	0xbdb0b643	-0.08628514
229	0x3daee1f5	0.08539192
230	0x3e883c98	0.2660873
231	0x3e9af426	0.30264395
232	0xbe4bace3	-0.1989017
233	0xbe14760f	-0.14498161
234	0x3e19e172	0.15027407
235	0x3e0e6728	0.13906538
236	0x3da44834	0.08021584
237	0x3e132e08	0.14373028
238	0x3e35dcce	0.17760012
239	0x3e53518e	0.2063658
240	0x3e370d35	0.17876132
241	0x3e10789b	0.14108507
242	0x3dfedf00	0.124448776
243	0xbb8a1d84	-0.0042149443
244	0x3d0a8f1a	0.03382788
245	0xbd4865ef	-0.048925336
246	0xbe54d417	-0.20784031
247	0x3d9244ab	0.071420036
248	0xbe7afc7f	-0.24510382
249	0xbe16e2ad	-0.14734907
250	0x3e00e8c8	0.12588799
251	0xbd9d09c7	-0.076678805
252	0x3e0a38b9	0.134982
253	0xbd9c1542	-0.07621242
254	0xbed8ecfc	-0.42368305
255	0x3e347d9c	0.17626041

block3.2.weight f4 [32]
0	0x3fa129dc	1.25909
1	0x3f948776	1.1603839
2	0x3f8fb76f	1.1227854
3	0x3f939ab7	1.153159
4	0x3fa1d2a1	1.2642404
5	0x3f853973	1.0408157
6	0x3f980f84	1.1879735
7	0x3fa60df4	1.2973008
8	0x3fa601d4	1.2969308
9	0x3f954d25	1.1664168
10	0x3f8b0ad5	1.0862681
11	0x3fa2107d	1.2661282
12	0x3f843b93	1.0330681
13	0x3f9bfe1e	1.2186925
14	0x3f969c41	1.1766435
15	0x3f9b2067	1.2119263
16	0x3f8e0121	1.1094095
17	0x3f9f1070	1.2426891
18	0x3f8ce981	1.100876
19	0x3f9a0eaf	1.2035731
20	0x3fa6e25e	1.3037832
21	0x3f8dece2	1.1087916
22	0x3fa94896	1.3225276
23	0x3f8cbb63	1.0994686
24	0x3f9a3e49	1.2050258
25	0x3f946fe7	1.159665
26	0x3f8fe788	1.1242533
27	0x3f92f3c1	1.1480638
28	0x3f996101	1.1982728
29	0x3f965a5b	1.1746324
30	0x3f82597c	1.0183558
31	0x3f89520f	1.0728167

block3.2.bias f4 [32]
0	0xbea3995c	-0.3195294
1	0xbe845329	-0.25844696
2	0xbe88dbd8	-0.26730227
3	0xbe7998ad	-0.24374647
4	0xbe88403f	-0.26611516
5	0xbe5054b5	-0.20344813
6	0xbe8cd866	-0.2750885
7	0xbe8830c0	-0.26599693
8	0xbe8b35a6	-0.27189368
9	0xbe920693	-0.2852064
10	0xbe69f3ee	-0.22846958
11	0xbe97415b	-0.2954205
12	0xbe36fbf7	-0.17869554
13	0xbe9c3b22	-0.30513865
14	0xbe8476ad	-0.25871792
15	0xbe8c1a5f	-0.2736387
16	0xbe643be3	-0.2228847
17	0xbe92c0be	-0.28662676
18	0xbe85dd88	-0.26145577
19	0xbe58571e	-0.21126983
20	0xbe8cade9	-0.27476433
21	0xbe8a1a97	-0.2697341
22	0xbe92d705	-0.28679672
23	0xbe82ec0a	-0.2557071
24	0xbe9848f0	-0.29743147
25	0xbe78b638	-0.24288261
26	0xbe7368c1	-0.23770429
27	0xbe6deefb	-0.23235695
28	0xbe931bee	-0.28732246
29	0xbe8a48e0	-0.27008724
30	0xbe3f0066	-0.18652496
31	0xbe5f8ad3	-0.21830301

block3.2.running_mean f4 [32]
0	0xbd7de425	-0.061985154
1	0xbd88b05f	-0.06674265
2	0xbce4549b	-0.027872374
3	0xbd86c1fe	-0.0657997
4	0xbd86c56f	-0.06580626
5	0xbcb3f937	-0.02196942
6	0xbd2149e2	-0.0393771
7	0xbd7cc0f3	-0.06170745
8	0xbda31bfa	-0.079643205
9	0xbd0c3044	-0.034225717
10	0xbcd5c5e6	-0.026095342
11	0xbd066246	-0.032808565
12	0xbd250688	-0.04028943
13	0xbd6a64ff	-0.057225224
14	0xbd2f3e78	-0.042784184
15	0xbd6daf49	-0.058028493
16	0xbd728f06	-0.05921843
17	0xbda0538e	-0.07828437
18	0xbd1136f1	-0.035452787
19	0xbcfa2c53	-0.030538714
20	0xbd8b317f	-0.0679655
21	0xbd8696f3	-0.0657176
22	0xbd932a1f	-0.07185768
23	0xbd0a5174	-0.033769086
24	0xbd158ba8	-0.03651014
25	0xbd7334b0	-0.05937642
26	0xbdad9968	-0.084765255
27	0xbcbae4d4	-0.022814192
28	0xbd39441d	-0.045230974
29	0xbd65d759	-0.056113575
30	0xbb17ed5b	-0.0023182246
31	0xbd0c4414	-0.03424461

block3.2.running_var f4 [32]
0	0x3f94f730	1.1637936
1	0x3fce0110	1.6094074
2	0x3fa82d26	1.3138778
3	0x3f9ea91c	1.2395358
4	0x3f9dfaba	1.2342141
5	0x3fac248e	1.3448656
6	0x3faa5465	1.3307005
7	0x3fbe1017	1.484866
8	0x3fbf8b75	1.4964434
9	0x3f92eed3	1.1479133
10	0x3fa74f66	1.3071105
11	0x3f8899d8	1.0671949
12	0x3fa142f9	1.2598563
13	0x3faaa7ba	1.3332436
14	0x3fa8e200	1.319397
15	0x3faa1621	1.3288003
16	0x3fd07b10	1.6287556
17	0x3f890171	1.0703565
18	0x3fc3806d	1.5273567
19	0x3fc61bab	1.5477194
20	0x3f9d54c5	1.2291495
21	0x3faaba57	1.3338116
22	0x3f97f2a9	1.1870929
23	0x3fb7f15a	1.437053
24	0x3f9802b5	1.1875826
25	0x3f805b5e	1.0027883
26	0x3f873cdf	1.0565451
27	0x3fa18f01	1.2621766
28	0x3fa68638	1.300971
29	0x3f9b1c7c	1.2118068
30	0x3f8ea2e9	1.1143466
31	0x3f9d46c8	1.2287226

fc.weight f4 [2, 224]
0	0x3e7eb5ec	0.24874085
1	0x3f066a61	0.5250607
2	0x3eb559b6	0.35420007
3	0x3e1d801c	0.15380901
4	0x3e4cd395	0.20002587
5	0x3d329eaa	0.043608345
6	0x3df54657	0.11976307
7	0xbf34c88e	-0.7061852
8	0xbf376c7f	-0.71649927
9	0xbc0713f8	-0.008244507
10	0xbe02d664	-0.12777096
11	0x3c5a4071	0.013321028
12	0xbdbbd903	-0.09172251
13	0x3db89215	0.09012238
14	0xbf740fbb	-0.953365
15	0x3eaffea2	0.34373957
16	0xbc5d5270	-0.013508424
17	0x3dba0b2e	0.090841636
18	0x3df896ab	0.12138113
19	0xbd32baa7	-0.043635037
20	0x3dfdb3aa	0.12387784
21	0xbf679026	-0.9045433
22	0xbf271029	-0.65259033
23	0x3d748a8e	0.05970245
24	0xbdada4bc	-0.08478686
25	0x3dbbabaa	0.09163602
26	0xbdc7741a	-0.097389415
27	0x3dd60c67	0.10451584
28	0xbd29b127	-0.04142871
29	0xbec6b838	-0.38812423
30	0xbeb01bde	-0.3439626
31	0xbe87595c	-0.26435363
32	0xbdf7d16c	-0.12100491
33	0xbda21ab5	-0.0791525
34	0xbd351837	-0.044212546
35	0x3f2fe42d	0.68707544
36	0x3e83b7f6	0.2572629
37	0xbe68aecf	-0.22722934
38	0xbe22cb39	-0.15897836
39	0xbecbb3f1	-0.39785722
40	0xbb518dcb	-0.0031975384
41	0x3a3f5b75	0.00072997
42	0x3f3b6644	0.7320292
43	0xbd26ddd9	-0.040738914
44	0xbd0e42a8	-0.034731537
45	0x3e5d4868	0.21609652
46	0x3cecbc99	0.028898524
47	0x3e0e8bd8	0.13920534
48	0x3e36df5a	0.1785864
49	0x3e114a21	0.14188434
50	0xbef6da70	-0.4821353
51	0xbe8a6087	-0.2702677
52	0xbe416f9e	-0.18890235
53	0xbdb0640c	-0.086128324
54	0xbd22689d	-0.03965055
55	0xbd122bc8	-0.035686284
56	0x3ebdd053	0.37073
57	0xbed212fc	-0.4103011
58	0xbe1f9388	-0.15583622
59	0xbe874b35	-0.26424566
60	0xbd7fbb17	-0.062434282
61	0x3b706b10	0.0036684908
62	0xbcffc809	-0.031223314
63	0x3e1be18d	0.1522276
64	0x3f20ed34	0.62861943
65	0x3c956986	0.018238794
66	0x3e9f75f4	0.3114468
67	0x3db5fb59	0.088858314
68	0x3e3b0afe	0.18265912
69	0xbcdb99b0	-0.026806682
70	0x3f16d608	0.58920336
71	0xbdc032f9	-0.09384722
72	0xbe850238	-0.25978255
73	0xbe65e9d0	-0.22452474
74	0xbecde935	-0.40216985
75	0x3c5b2285	0.013374929
76	0xbd8b5ee1	-0.06805206
77	0x3cefbc31	0.029264541
78	0x3f0a4ee4	0.5402663
79	0x3e8697ed	0.26287785
80	0x3e3ca8ec	0.18423814
81	0x3e1a9f84	0.15099913
82	0x3d19645f	0.037449237
83	0x3e6fbbba	0.23411456
84	0x3f4f3d38	0.8095279
85	0x3e895e91	0.2682996
86	0xbe06e32e	-0.131726
87	0x3d0df2fa	0.03465555
88	0xbe5b3ecb	-0.21410672
89	0xbdd2cabc	-0.10292575
90	0xbdcfc51f	-0.1014502
91	0x3ef9af00	0.48766327
92	0x3eb985c2	0.36234862
93	0x3e64970d	0.22323246
94	0x3e879c74	0.26486552
95	0x3e433526	0.19063243
96	0x3e23484a	0.15945545
97	0x3e23788a	0.15963951
98	0x3f3ac460	0.72955894
99	0x3e686d4f	0.22697948
100	0x3d3309df	0.043710586
101	0x3db61297	0.088902645
102	0x3eba040f	0.3633122
103	0x3c65e8c0	0.014032543
104	0x3d0139d6	0.031549297
105	0x3f1e1b63	0.6176054
106	0xbe27c8b3	-0.16385154
107	0x3de283d4	0.110603005
108	0xbeb94d50	-0.36191797
109	0xbced211a	-0.028946448
110	0xbe3ca78c	-0.18423289
111	0xbe81a8df	-0.2532415
112	0x3f068fb9	0.52563053
113	0x3f22683f	0.63440317
114	0x3da78c53	0.081810616
115	0x3e02c834	0.12771684
116	0x3e119236	0.14215931
117	0xb9a9939e	-0.00032344175
118	0xbc7e3388	-0.015515216
119	0x3ef6e98d	0.4822506
120	0xbe91b956	-0.28461713
121	0xbe05aff8	-0.13055408
122	0xbe11a8ec	-0.14224595
123	0xbd0baac2	-0.034098394
124	0xbe79f5c5	-0.2441016
125	0xbd38d4e0	-0.04512489
126	0xbf8fa955	-1.1223551
127	0x3e042d90	0.12908006
128	0xbd390deb	-0.04517929
129	0xbb3b395d	-0.0028568127
130	0x3d84e604	0.064891845
131	0xbe1f6850	-0.15567136
132	0x3e2968cb	0.16543882
133	0x3ddec250	0.10876906
134	0xbf0b6817	-0.54455703
135	0xbead9443	-0.33902177
136	0xbe116e61	-0.14202262
137	0xbe3e6c65	-0.18596037
138	0xbdeb0d9d	-0.11477206
139	0xbd49ffed	-0.049316335
140	0x3db83785	0.089949645
141	0xbee4f200	-0.4471588
142	0xbea71ab4	-0.3263756
143	0xbe9ed38f	-0.3102078
144	0xbcb83a10	-0.022488624
145	0xbc0c0785	-0.008546715
146	0xbd99d2c3	-0.07510903
147	0xbf887214	-1.0659814
148	0xbe53cea1	-0.20684291
149	0x3d032220	0.032014966
150	0xbd06fc47	-0.032955434
151	0x3d28ecbb	0.04124139
152	0xbd2119ce	-0.03933125
153	0x3e49370f	0.1964991
154	0x3cdb5a38	0.026776418
155	0xbec8d89c	-0.3922776
156	0xbeccac94	-0.39975417
157	0xbe8dbf22	-0.27684885
158	0xbda5c08d	-0.08093367
159	0xbdddd82f	-0.108322494
160	0xbd9d529e	-0.076817736
161	0xbf84c918	-1.0373869
162	0x3e3c4fff	0.18389891
163	0x3c4393c1	0.011937083
164	0xbbdeaafe	-0.006795286
165	0x3df542d3	0.11975636
166	0x3d9fa919	0.07795925
167	0x3e2b5858	0.16732919
168	0x3dfeb0da	0.124360755
169	0x3f0e8e04	0.5568545
170	0x3e6d09c4	0.23148257
171	0x3e8deb9b	0.27718815
172	0x3e6a9496	0.22908244
173	0x3d6491e8	0.05580321
174	0x3e43f66e	0.19136974
175	0xbea98e82	-0.33116537
176	0xbed9c79d	-0.42535105
177	0xbe93504f	-0.28772208
178	0xbdebbc43	-0.115105174
179	0xbe0b7bb5	-0.13621409
180	0xbe3a8ff3	-0.18218975
181	0xbd1c61b6	-0.038179122
182	0x3ea8e636	0.32988137
183	0xbd635c74	-0.055508092
184	0xbe63b753	-0.22237901
185	0xbeba0853	-0.36334476
186	0xbe20b712	-0.15694836
187	0x3e556725	0.20840128
188	0xbe80940f	-0.2511296
189	0x3f0f8d25	0.56074744
190	0x3ea30420	0.31839085
191	0xbe2ebeb9	-0.17064942
192	0xbe56d795	-0.20980676
193	0x3c695bfa	0.01424312
194	0xbe2ea12b	-0.17053668
195	0x3ecd8d89	0.40147045
196	0x3f1ebdd2	0.6200839
197	0xbdf67309	-0.1203366
198	0x3ef50cb0	0.47861242
199	0x3e06b139	0.13153543
200	0x3dda954d	0.10673008
201	0x3eb003c9	0.34377888
202	0x3de0ccd7	0.1097657
203	0x3f33d300	0.70243835
204	0x3e3785cf	0.17922138
205	0x3e2fb950	0.17160535
206	0x3e0d22ad	0.13782759
207	0x3e525e84	0.20543867
208	0xbd5526b5	-0.052038867
209	0x3e0cb769	0.1374184
210	0x3f069879	0.52576405
211	0x3ed6cd18	0.4195335
212	0xbe83a71c	-0.25713432
213	0x3ea52b83	0.3225976
214	0xbe992076	-0.29907578
215	0x3dfa8fa1	0.12234426
216	0x3dc6f00a	0.097137526
217	0x3f29a510	0.6626749
218	0x3ecdb3e1	0.401763
219	0xbe2a7cc2	-0.16649154
220	0xbd3b3c05	-0.045711536
221	0xbe92e0df	-0.28687188
222	0xbdbb95f3	-0.0915946
223	0x3cebef4a	0.028800625
224	0xbe890d0c	-0.26767766
225	0xbf08fe1a	-0.5351273
226	0xbea4aa53	-0.32161197
227	0xbe1af604	-0.1513291
228	0xbe613a48	-0.21994889
229	0xbc981d40	-0.018568635
230	0xbe198e48	-0.14995682
231	0x3f35e222	0.71048176
232	0x3f35d5db	0.7102944
233	0x3ce9b75b	0.028529814
234	0x3defeefe	0.11715506
235	0xbd1e813f	-0.038697477
236	0x3d4b6dc5	0.04966523
237	0xbd962a17	-0.07332247
238	0x3f76c532	0.96394646
239	0xbe9d07a8	-0.30669904
240	0x3c92c1df	0.01791471
241	0xbdfa8db7	-0.12234061
242	0xbe0812e9	-0.13288464
243	0x3ce5fe31	0.02807531
244	0xbde528a3	-0.111893915
245	0x3f5fb9bf	0.873928
246	0x3f279e48	0.65475893
247	0xbccba994	-0.024861135
248	0x3d43fab1	0.0478465
249	0xbdaf3b80	-0.085562706
250	0x3dfb64e8	0.12275106
251	0xbe06bda8	-0.13158286
252	0x3d19285c	0.037392005
253	0x3ed213fa	0.41030866
254	0x3eaa6622	0.33281046
255	0x3e71fcd7	0.23631607

fc.bias f4 [2]
0	0xbd84a487	-0.064766936
1	0xbd2840d5	-0.041077454
